…
      (1): BatchNorm2d(1024, eps=1e-05, momentum=0.1, affine=True, track_running_stats=True)
      (2): ReLU(inplace)
      (3): Conv2d(1024, 1024, kernel_size=(1, 1), stride=(1, 1), bias=False)
      (4): BatchNorm2d(1024, eps=1e-05, momentum=0.1, affine=True, track_running_stats=True)
      (5): ReLU(inplace)
    )
    (14): AvgPool2d(kernel_size=7, stride=7, padding=0)
  )
  (fc): Linear(in_features=1024, out_features=100, bias=True)
)


----------------------------------------------------------------
        Layer (type)               Output Shape         Param #
================================================================
            Conv2d-1         [-1, 32, 112, 112]             864
       BatchNorm2d-2         [-1, 32, 112, 112]              64
              ReLU-3         [-1, 32, 112, 112]               0


            Conv2d-4         [-1, 32, 112, 112]             288
       BatchNorm2d-5         [-1, 32, 112, 112]              64
              ReLU-6         [-1, 32, 112, 112]               0        
            Conv2d-7         [-1, 64, 112, 112]           2,048
       BatchNorm2d-8         [-1, 64, 112, 112]             128
              ReLU-9         [-1, 64, 112, 112]               0
0


           Conv2d-10           [-1, 64, 56, 56]             576
      BatchNorm2d-11           [-1, 64, 56, 56]             128
             ReLU-12           [-1, 64, 56, 56]               0
           Conv2d-13          [-1, 128, 56, 56]           8,192
      BatchNorm2d-14          [-1, 128, 56, 56]             256
             ReLU-15          [-1, 128, 56, 56]               0
1


           Conv2d-16          [-1, 128, 56, 56]           1,152
      BatchNorm2d-17          [-1, 128, 56, 56]             256
             ReLU-18          [-1, 128, 56, 56]               0
           Conv2d-19          [-1, 128, 56, 56]          16,384
      BatchNorm2d-20          [-1, 128, 56, 56]             256
             ReLU-21          [-1, 128, 56, 56]               0
2


           Conv2d-22          [-1, 128, 28, 28]           1,152
      BatchNorm2d-23          [-1, 128, 28, 28]             256
             ReLU-24          [-1, 128, 28, 28]               0
           Conv2d-25          [-1, 256, 28, 28]          32,768
      BatchNorm2d-26          [-1, 256, 28, 28]             512
             ReLU-27          [-1, 256, 28, 28]               0
3


           Conv2d-28          [-1, 256, 28, 28]           2,304
      BatchNorm2d-29          [-1, 256, 28, 28]             512
             ReLU-30          [-1, 256, 28, 28]               0
           Conv2d-31          [-1, 256, 28, 28]          65,536
      BatchNorm2d-32          [-1, 256, 28, 28]             512
             ReLU-33          [-1, 256, 28, 28]               0
4

           Conv2d-34          [-1, 256, 14, 14]           2,304
      BatchNorm2d-35          [-1, 256, 14, 14]             512
             ReLU-36          [-1, 256, 14, 14]               0
           Conv2d-37          [-1, 512, 14, 14]         131,072
      BatchNorm2d-38          [-1, 512, 14, 14]           1,024
             ReLU-39          [-1, 512, 14, 14]               0

5
           Conv2d-40          [-1, 512, 14, 14]           4,608
      BatchNorm2d-41          [-1, 512, 14, 14]           1,024
             ReLU-42          [-1, 512, 14, 14]               0
           Conv2d-43          [-1, 512, 14, 14]         262,144
      BatchNorm2d-44          [-1, 512, 14, 14]           1,024
             ReLU-45          [-1, 512, 14, 14]               0

6
           Conv2d-46          [-1, 512, 14, 14]           4,608
      BatchNorm2d-47          [-1, 512, 14, 14]           1,024
             ReLU-48          [-1, 512, 14, 14]               0
           Conv2d-49          [-1, 512, 14, 14]         262,144
      BatchNorm2d-50          [-1, 512, 14, 14]           1,024
             ReLU-51          [-1, 512, 14, 14]               0

7
           Conv2d-52          [-1, 512, 14, 14]           4,608
      BatchNorm2d-53          [-1, 512, 14, 14]           1,024
             ReLU-54          [-1, 512, 14, 14]               0
           Conv2d-55          [-1, 512, 14, 14]         262,144
      BatchNorm2d-56          [-1, 512, 14, 14]           1,024
             ReLU-57          [-1, 512, 14, 14]               0

8
           Conv2d-58          [-1, 512, 14, 14]           4,608
      BatchNorm2d-59          [-1, 512, 14, 14]           1,024
             ReLU-60          [-1, 512, 14, 14]               0
           Conv2d-61          [-1, 512, 14, 14]         262,144
      BatchNorm2d-62          [-1, 512, 14, 14]           1,024
             ReLU-63          [-1, 512, 14, 14]               0

9
           Conv2d-64          [-1, 512, 14, 14]           4,608
      BatchNorm2d-65          [-1, 512, 14, 14]           1,024
             ReLU-66          [-1, 512, 14, 14]               0
           Conv2d-67          [-1, 512, 14, 14]         262,144
      BatchNorm2d-68          [-1, 512, 14, 14]           1,024
             ReLU-69          [-1, 512, 14, 14]               0

10
           Conv2d-70            [-1, 512, 7, 7]           4,608
      BatchNorm2d-71            [-1, 512, 7, 7]           1,024
             ReLU-72            [-1, 512, 7, 7]               0
           Conv2d-73           [-1, 1024, 7, 7]         524,288
      BatchNorm2d-74           [-1, 1024, 7, 7]           2,048
             ReLU-75           [-1, 1024, 7, 7]               0

11
           Conv2d-76           [-1, 1024, 7, 7]           9,216
      BatchNorm2d-77           [-1, 1024, 7, 7]           2,048
             ReLU-78           [-1, 1024, 7, 7]               0
           Conv2d-79           [-1, 1024, 7, 7]       1,048,576
      BatchNorm2d-80           [-1, 1024, 7, 7]           2,048
             ReLU-81           [-1, 1024, 7, 7]               0

        AvgPool2d-82           [-1, 1024, 1, 1]               0
           Linear-83                  [-1, 100]         102,500
        MobileNet-84                  [-1, 100]               0
================================================================
Total params: 3,309,476
Trainable params: 3,309,476
Non-trainable params: 0
----------------------------------------------------------------


