[30.05.2018 02:39:44] Pre-training CIFAR-100 on ElasticNN-MobileNet, alpha = 0.75...
[30.05.2018 02:39:55] Model summary:
[30.05.2018 02:39:55] __________________________________________________________________________________________________
[30.05.2018 02:39:55] Layer (type)                    Output Shape         Param #     Ops #     Connected to           
[30.05.2018 02:39:55] ==================================================================================================
[30.05.2018 02:39:55] input_1 (InputLayer)            (None, 224, 224, 3)  0           None                             
[30.05.2018 02:39:55] __________________________________________________________________________________________________
[30.05.2018 02:39:55] conv1_pad (ZeroPadding2D)       (None, 226, 226, 3)  0           None      input_1[0][0]          
[30.05.2018 02:39:55] __________________________________________________________________________________________________
[30.05.2018 02:39:55] conv1 (Conv2D)                  (None, 112, 112, 24) 648         8128512   conv1_pad[0][0]        
[30.05.2018 02:39:55] __________________________________________________________________________________________________
[30.05.2018 02:39:55] conv1_bn (BatchNormalization)   (None, 112, 112, 24) 96          None      conv1[0][0]            
[30.05.2018 02:39:55] __________________________________________________________________________________________________
[30.05.2018 02:39:55] conv1_relu (Activation)         (None, 112, 112, 24) 0           None      conv1_bn[0][0]         
[30.05.2018 02:39:55] __________________________________________________________________________________________________
[30.05.2018 02:39:55] conv_pad_1 (ZeroPadding2D)      (None, 114, 114, 24) 0           None      conv1_relu[0][0]       
[30.05.2018 02:39:55] __________________________________________________________________________________________________
[30.05.2018 02:39:55] conv_dw_1 (DepthwiseConv2D)     (None, 112, 112, 24) 216         None      conv_pad_1[0][0]       
[30.05.2018 02:39:55] __________________________________________________________________________________________________
[30.05.2018 02:39:55] conv_dw_1_bn (BatchNormalizatio (None, 112, 112, 24) 96          None      conv_dw_1[0][0]        
[30.05.2018 02:39:55] __________________________________________________________________________________________________
[30.05.2018 02:39:55] conv_dw_1_relu (Activation)     (None, 112, 112, 24) 0           None      conv_dw_1_bn[0][0]     
[30.05.2018 02:39:55] __________________________________________________________________________________________________
[30.05.2018 02:39:55] conv_pw_1 (Conv2D)              (None, 112, 112, 48) 1152        14450688  conv_dw_1_relu[0][0]   
[30.05.2018 02:39:55] __________________________________________________________________________________________________
[30.05.2018 02:39:55] conv_pw_1_bn (BatchNormalizatio (None, 112, 112, 48) 192         None      conv_pw_1[0][0]        
[30.05.2018 02:39:55] __________________________________________________________________________________________________
[30.05.2018 02:39:55] conv_pw_1_relu (Activation)     (None, 112, 112, 48) 0           None      conv_pw_1_bn[0][0]     
[30.05.2018 02:39:55] __________________________________________________________________________________________________
[30.05.2018 02:39:55] conv_pad_2 (ZeroPadding2D)      (None, 114, 114, 48) 0           None      conv_pw_1_relu[0][0]   
[30.05.2018 02:39:55] __________________________________________________________________________________________________
[30.05.2018 02:39:55] conv_dw_2 (DepthwiseConv2D)     (None, 56, 56, 48)   432         None      conv_pad_2[0][0]       
[30.05.2018 02:39:55] __________________________________________________________________________________________________
[30.05.2018 02:39:55] conv_dw_2_bn (BatchNormalizatio (None, 56, 56, 48)   192         None      conv_dw_2[0][0]        
[30.05.2018 02:39:55] __________________________________________________________________________________________________
[30.05.2018 02:39:55] conv_dw_2_relu (Activation)     (None, 56, 56, 48)   0           None      conv_dw_2_bn[0][0]     
[30.05.2018 02:39:55] __________________________________________________________________________________________________
[30.05.2018 02:39:55] conv_pw_2 (Conv2D)              (None, 56, 56, 96)   4608        14450688  conv_dw_2_relu[0][0]   
[30.05.2018 02:39:55] __________________________________________________________________________________________________
[30.05.2018 02:39:55] conv_pw_2_bn (BatchNormalizatio (None, 56, 56, 96)   384         None      conv_pw_2[0][0]        
[30.05.2018 02:39:55] __________________________________________________________________________________________________
[30.05.2018 02:39:55] conv_pw_2_relu (Activation)     (None, 56, 56, 96)   0           None      conv_pw_2_bn[0][0]     
[30.05.2018 02:39:55] __________________________________________________________________________________________________
[30.05.2018 02:39:55] conv_pad_3 (ZeroPadding2D)      (None, 58, 58, 96)   0           None      conv_pw_2_relu[0][0]   
[30.05.2018 02:39:55] __________________________________________________________________________________________________
[30.05.2018 02:39:55] conv_dw_3 (DepthwiseConv2D)     (None, 56, 56, 96)   864         None      conv_pad_3[0][0]       
[30.05.2018 02:39:55] __________________________________________________________________________________________________
[30.05.2018 02:39:55] conv_dw_3_bn (BatchNormalizatio (None, 56, 56, 96)   384         None      conv_dw_3[0][0]        
[30.05.2018 02:39:55] __________________________________________________________________________________________________
[30.05.2018 02:39:55] conv_dw_3_relu (Activation)     (None, 56, 56, 96)   0           None      conv_dw_3_bn[0][0]     
[30.05.2018 02:39:55] __________________________________________________________________________________________________
[30.05.2018 02:39:55] conv_pw_3 (Conv2D)              (None, 56, 56, 96)   9216        28901376  conv_dw_3_relu[0][0]   
[30.05.2018 02:39:55] __________________________________________________________________________________________________
[30.05.2018 02:39:55] conv_pw_3_bn (BatchNormalizatio (None, 56, 56, 96)   384         None      conv_pw_3[0][0]        
[30.05.2018 02:39:55] __________________________________________________________________________________________________
[30.05.2018 02:39:55] conv_pw_3_relu (Activation)     (None, 56, 56, 96)   0           None      conv_pw_3_bn[0][0]     
[30.05.2018 02:39:55] __________________________________________________________________________________________________
[30.05.2018 02:39:55] conv_pad_4 (ZeroPadding2D)      (None, 58, 58, 96)   0           None      conv_pw_3_relu[0][0]   
[30.05.2018 02:39:55] __________________________________________________________________________________________________
[30.05.2018 02:39:55] conv_dw_4 (DepthwiseConv2D)     (None, 28, 28, 96)   864         None      conv_pad_4[0][0]       
[30.05.2018 02:39:55] __________________________________________________________________________________________________
[30.05.2018 02:39:55] conv_dw_4_bn (BatchNormalizatio (None, 28, 28, 96)   384         None      conv_dw_4[0][0]        
[30.05.2018 02:39:55] __________________________________________________________________________________________________
[30.05.2018 02:39:55] conv_dw_4_relu (Activation)     (None, 28, 28, 96)   0           None      conv_dw_4_bn[0][0]     
[30.05.2018 02:39:55] __________________________________________________________________________________________________
[30.05.2018 02:39:55] conv_pw_4 (Conv2D)              (None, 28, 28, 192)  18432       14450688  conv_dw_4_relu[0][0]   
[30.05.2018 02:39:55] __________________________________________________________________________________________________
[30.05.2018 02:39:55] conv_pw_4_bn (BatchNormalizatio (None, 28, 28, 192)  768         None      conv_pw_4[0][0]        
[30.05.2018 02:39:55] __________________________________________________________________________________________________
[30.05.2018 02:39:55] conv_pw_4_relu (Activation)     (None, 28, 28, 192)  0           None      conv_pw_4_bn[0][0]     
[30.05.2018 02:39:55] __________________________________________________________________________________________________
[30.05.2018 02:39:55] conv_pad_5 (ZeroPadding2D)      (None, 30, 30, 192)  0           None      conv_pw_4_relu[0][0]   
[30.05.2018 02:39:55] __________________________________________________________________________________________________
[30.05.2018 02:39:55] conv_dw_5 (DepthwiseConv2D)     (None, 28, 28, 192)  1728        None      conv_pad_5[0][0]       
[30.05.2018 02:39:55] __________________________________________________________________________________________________
[30.05.2018 02:39:55] conv_dw_5_bn (BatchNormalizatio (None, 28, 28, 192)  768         None      conv_dw_5[0][0]        
[30.05.2018 02:39:55] __________________________________________________________________________________________________
[30.05.2018 02:39:55] conv_dw_5_relu (Activation)     (None, 28, 28, 192)  0           None      conv_dw_5_bn[0][0]     
[30.05.2018 02:39:55] __________________________________________________________________________________________________
[30.05.2018 02:39:55] conv_pw_5 (Conv2D)              (None, 28, 28, 192)  36864       28901376  conv_dw_5_relu[0][0]   
[30.05.2018 02:39:55] __________________________________________________________________________________________________
[30.05.2018 02:39:55] conv_pw_5_bn (BatchNormalizatio (None, 28, 28, 192)  768         None      conv_pw_5[0][0]        
[30.05.2018 02:39:55] __________________________________________________________________________________________________
[30.05.2018 02:39:55] conv_pw_5_relu (Activation)     (None, 28, 28, 192)  0           None      conv_pw_5_bn[0][0]     
[30.05.2018 02:39:55] __________________________________________________________________________________________________
[30.05.2018 02:39:55] conv_pad_6 (ZeroPadding2D)      (None, 30, 30, 192)  0           None      conv_pw_5_relu[0][0]   
[30.05.2018 02:39:55] __________________________________________________________________________________________________
[30.05.2018 02:39:55] conv_dw_6 (DepthwiseConv2D)     (None, 14, 14, 192)  1728        None      conv_pad_6[0][0]       
[30.05.2018 02:39:55] __________________________________________________________________________________________________
[30.05.2018 02:39:55] conv_dw_6_bn (BatchNormalizatio (None, 14, 14, 192)  768         None      conv_dw_6[0][0]        
[30.05.2018 02:39:55] __________________________________________________________________________________________________
[30.05.2018 02:39:55] conv_dw_6_relu (Activation)     (None, 14, 14, 192)  0           None      conv_dw_6_bn[0][0]     
[30.05.2018 02:39:55] __________________________________________________________________________________________________
[30.05.2018 02:39:55] conv_pw_6 (Conv2D)              (None, 14, 14, 384)  73728       14450688  conv_dw_6_relu[0][0]   
[30.05.2018 02:39:55] __________________________________________________________________________________________________
[30.05.2018 02:39:55] conv_pw_6_bn (BatchNormalizatio (None, 14, 14, 384)  1536        None      conv_pw_6[0][0]        
[30.05.2018 02:39:55] __________________________________________________________________________________________________
[30.05.2018 02:39:55] conv_pw_6_relu (Activation)     (None, 14, 14, 384)  0           None      conv_pw_6_bn[0][0]     
[30.05.2018 02:39:55] __________________________________________________________________________________________________
[30.05.2018 02:39:55] conv_pad_7 (ZeroPadding2D)      (None, 16, 16, 384)  0           None      conv_pw_6_relu[0][0]   
[30.05.2018 02:39:55] __________________________________________________________________________________________________
[30.05.2018 02:39:55] conv_dw_7 (DepthwiseConv2D)     (None, 14, 14, 384)  3456        None      conv_pad_7[0][0]       
[30.05.2018 02:39:55] __________________________________________________________________________________________________
[30.05.2018 02:39:55] conv_dw_7_bn (BatchNormalizatio (None, 14, 14, 384)  1536        None      conv_dw_7[0][0]        
[30.05.2018 02:39:55] __________________________________________________________________________________________________
[30.05.2018 02:39:55] conv_dw_7_relu (Activation)     (None, 14, 14, 384)  0           None      conv_dw_7_bn[0][0]     
[30.05.2018 02:39:55] __________________________________________________________________________________________________
[30.05.2018 02:39:55] conv_pw_7 (Conv2D)              (None, 14, 14, 384)  147456      28901376  conv_dw_7_relu[0][0]   
[30.05.2018 02:39:55] __________________________________________________________________________________________________
[30.05.2018 02:39:55] conv_pw_7_bn (BatchNormalizatio (None, 14, 14, 384)  1536        None      conv_pw_7[0][0]        
[30.05.2018 02:39:55] __________________________________________________________________________________________________
[30.05.2018 02:39:55] conv_pw_7_relu (Activation)     (None, 14, 14, 384)  0           None      conv_pw_7_bn[0][0]     
[30.05.2018 02:39:55] __________________________________________________________________________________________________
[30.05.2018 02:39:55] conv_pad_8 (ZeroPadding2D)      (None, 16, 16, 384)  0           None      conv_pw_7_relu[0][0]   
[30.05.2018 02:39:55] __________________________________________________________________________________________________
[30.05.2018 02:39:55] conv_dw_8 (DepthwiseConv2D)     (None, 14, 14, 384)  3456        None      conv_pad_8[0][0]       
[30.05.2018 02:39:55] __________________________________________________________________________________________________
[30.05.2018 02:39:55] conv_dw_8_bn (BatchNormalizatio (None, 14, 14, 384)  1536        None      conv_dw_8[0][0]        
[30.05.2018 02:39:55] __________________________________________________________________________________________________
[30.05.2018 02:39:55] conv_dw_8_relu (Activation)     (None, 14, 14, 384)  0           None      conv_dw_8_bn[0][0]     
[30.05.2018 02:39:55] __________________________________________________________________________________________________
[30.05.2018 02:39:55] conv_pw_8 (Conv2D)              (None, 14, 14, 384)  147456      28901376  conv_dw_8_relu[0][0]   
[30.05.2018 02:39:55] __________________________________________________________________________________________________
[30.05.2018 02:39:55] conv_pw_8_bn (BatchNormalizatio (None, 14, 14, 384)  1536        None      conv_pw_8[0][0]        
[30.05.2018 02:39:55] __________________________________________________________________________________________________
[30.05.2018 02:39:55] conv_pw_8_relu (Activation)     (None, 14, 14, 384)  0           None      conv_pw_8_bn[0][0]     
[30.05.2018 02:39:55] __________________________________________________________________________________________________
[30.05.2018 02:39:55] conv_pad_9 (ZeroPadding2D)      (None, 16, 16, 384)  0           None      conv_pw_8_relu[0][0]   
[30.05.2018 02:39:55] __________________________________________________________________________________________________
[30.05.2018 02:39:55] conv_dw_9 (DepthwiseConv2D)     (None, 14, 14, 384)  3456        None      conv_pad_9[0][0]       
[30.05.2018 02:39:55] __________________________________________________________________________________________________
[30.05.2018 02:39:55] conv_dw_9_bn (BatchNormalizatio (None, 14, 14, 384)  1536        None      conv_dw_9[0][0]        
[30.05.2018 02:39:55] __________________________________________________________________________________________________
[30.05.2018 02:39:55] conv_dw_9_relu (Activation)     (None, 14, 14, 384)  0           None      conv_dw_9_bn[0][0]     
[30.05.2018 02:39:55] __________________________________________________________________________________________________
[30.05.2018 02:39:55] conv_pw_9 (Conv2D)              (None, 14, 14, 384)  147456      28901376  conv_dw_9_relu[0][0]   
[30.05.2018 02:39:55] __________________________________________________________________________________________________
[30.05.2018 02:39:55] conv_pw_9_bn (BatchNormalizatio (None, 14, 14, 384)  1536        None      conv_pw_9[0][0]        
[30.05.2018 02:39:55] __________________________________________________________________________________________________
[30.05.2018 02:39:55] conv_pw_9_relu (Activation)     (None, 14, 14, 384)  0           None      conv_pw_9_bn[0][0]     
[30.05.2018 02:39:55] __________________________________________________________________________________________________
[30.05.2018 02:39:55] conv_pad_10 (ZeroPadding2D)     (None, 16, 16, 384)  0           None      conv_pw_9_relu[0][0]   
[30.05.2018 02:39:55] __________________________________________________________________________________________________
[30.05.2018 02:39:55] conv_dw_10 (DepthwiseConv2D)    (None, 14, 14, 384)  3456        None      conv_pad_10[0][0]      
[30.05.2018 02:39:55] __________________________________________________________________________________________________
[30.05.2018 02:39:55] conv_dw_10_bn (BatchNormalizati (None, 14, 14, 384)  1536        None      conv_dw_10[0][0]       
[30.05.2018 02:39:55] __________________________________________________________________________________________________
[30.05.2018 02:39:55] conv_dw_10_relu (Activation)    (None, 14, 14, 384)  0           None      conv_dw_10_bn[0][0]    
[30.05.2018 02:39:55] __________________________________________________________________________________________________
[30.05.2018 02:39:55] conv_pw_10 (Conv2D)             (None, 14, 14, 384)  147456      28901376  conv_dw_10_relu[0][0]  
[30.05.2018 02:39:55] __________________________________________________________________________________________________
[30.05.2018 02:39:55] conv_pw_10_bn (BatchNormalizati (None, 14, 14, 384)  1536        None      conv_pw_10[0][0]       
[30.05.2018 02:39:55] __________________________________________________________________________________________________
[30.05.2018 02:39:55] conv_pw_10_relu (Activation)    (None, 14, 14, 384)  0           None      conv_pw_10_bn[0][0]    
[30.05.2018 02:39:55] __________________________________________________________________________________________________
[30.05.2018 02:39:55] conv_pad_11 (ZeroPadding2D)     (None, 16, 16, 384)  0           None      conv_pw_10_relu[0][0]  
[30.05.2018 02:39:55] __________________________________________________________________________________________________
[30.05.2018 02:39:55] conv_dw_11 (DepthwiseConv2D)    (None, 14, 14, 384)  3456        None      conv_pad_11[0][0]      
[30.05.2018 02:39:55] __________________________________________________________________________________________________
[30.05.2018 02:39:55] conv_dw_11_bn (BatchNormalizati (None, 14, 14, 384)  1536        None      conv_dw_11[0][0]       
[30.05.2018 02:39:55] __________________________________________________________________________________________________
[30.05.2018 02:39:55] conv_dw_11_relu (Activation)    (None, 14, 14, 384)  0           None      conv_dw_11_bn[0][0]    
[30.05.2018 02:39:55] __________________________________________________________________________________________________
[30.05.2018 02:39:55] conv_pw_11 (Conv2D)             (None, 14, 14, 384)  147456      28901376  conv_dw_11_relu[0][0]  
[30.05.2018 02:39:55] __________________________________________________________________________________________________
[30.05.2018 02:39:55] conv_pw_11_bn (BatchNormalizati (None, 14, 14, 384)  1536        None      conv_pw_11[0][0]       
[30.05.2018 02:39:55] __________________________________________________________________________________________________
[30.05.2018 02:39:55] conv_pw_11_relu (Activation)    (None, 14, 14, 384)  0           None      conv_pw_11_bn[0][0]    
[30.05.2018 02:39:55] __________________________________________________________________________________________________
[30.05.2018 02:39:55] conv_pad_12 (ZeroPadding2D)     (None, 16, 16, 384)  0           None      conv_pw_11_relu[0][0]  
[30.05.2018 02:39:55] __________________________________________________________________________________________________
[30.05.2018 02:39:55] conv_dw_12 (DepthwiseConv2D)    (None, 7, 7, 384)    3456        None      conv_pad_12[0][0]      
[30.05.2018 02:39:55] __________________________________________________________________________________________________
[30.05.2018 02:39:55] conv_dw_12_bn (BatchNormalizati (None, 7, 7, 384)    1536        None      conv_dw_12[0][0]       
[30.05.2018 02:39:55] __________________________________________________________________________________________________
[30.05.2018 02:39:55] conv_dw_12_relu (Activation)    (None, 7, 7, 384)    0           None      conv_dw_12_bn[0][0]    
[30.05.2018 02:39:55] __________________________________________________________________________________________________
[30.05.2018 02:39:55] conv_pw_12 (Conv2D)             (None, 7, 7, 768)    294912      14450688  conv_dw_12_relu[0][0]  
[30.05.2018 02:39:55] __________________________________________________________________________________________________
[30.05.2018 02:39:55] conv_pw_12_bn (BatchNormalizati (None, 7, 7, 768)    3072        None      conv_pw_12[0][0]       
[30.05.2018 02:39:55] __________________________________________________________________________________________________
[30.05.2018 02:39:55] conv_pw_12_relu (Activation)    (None, 7, 7, 768)    0           None      conv_pw_12_bn[0][0]    
[30.05.2018 02:39:55] __________________________________________________________________________________________________
[30.05.2018 02:39:55] conv_pad_13 (ZeroPadding2D)     (None, 9, 9, 768)    0           None      conv_pw_12_relu[0][0]  
[30.05.2018 02:39:55] __________________________________________________________________________________________________
[30.05.2018 02:39:55] conv_dw_13 (DepthwiseConv2D)    (None, 7, 7, 768)    6912        None      conv_pad_13[0][0]      
[30.05.2018 02:39:55] __________________________________________________________________________________________________
[30.05.2018 02:39:55] conv_dw_13_bn (BatchNormalizati (None, 7, 7, 768)    3072        None      conv_dw_13[0][0]       
[30.05.2018 02:39:55] __________________________________________________________________________________________________
[30.05.2018 02:39:55] conv_dw_13_relu (Activation)    (None, 7, 7, 768)    0           None      conv_dw_13_bn[0][0]    
[30.05.2018 02:39:55] __________________________________________________________________________________________________
[30.05.2018 02:39:55] conv_pw_13 (Conv2D)             (None, 7, 7, 768)    589824      28901376  conv_dw_13_relu[0][0]  
[30.05.2018 02:39:55] __________________________________________________________________________________________________
[30.05.2018 02:39:55] conv_pw_13_bn (BatchNormalizati (None, 7, 7, 768)    3072        None      conv_pw_13[0][0]       
[30.05.2018 02:39:55] __________________________________________________________________________________________________
[30.05.2018 02:39:55] conv_pw_13_relu (Activation)    (None, 7, 7, 768)    0           None      conv_pw_13_bn[0][0]    
[30.05.2018 02:39:55] __________________________________________________________________________________________________
[30.05.2018 02:39:55] global_average_pooling2d_1 (Glo (None, 48)           0           None      conv_pw_1_relu[0][0]   
[30.05.2018 02:39:55] __________________________________________________________________________________________________
[30.05.2018 02:39:55] global_average_pooling2d_2 (Glo (None, 96)           0           None      conv_pw_2_relu[0][0]   
[30.05.2018 02:39:55] __________________________________________________________________________________________________
[30.05.2018 02:39:55] global_average_pooling2d_3 (Glo (None, 96)           0           None      conv_pw_3_relu[0][0]   
[30.05.2018 02:39:55] __________________________________________________________________________________________________
[30.05.2018 02:39:55] global_average_pooling2d_4 (Glo (None, 192)          0           None      conv_pw_4_relu[0][0]   
[30.05.2018 02:39:55] __________________________________________________________________________________________________
[30.05.2018 02:39:55] global_average_pooling2d_5 (Glo (None, 192)          0           None      conv_pw_5_relu[0][0]   
[30.05.2018 02:39:55] __________________________________________________________________________________________________
[30.05.2018 02:39:55] global_average_pooling2d_6 (Glo (None, 384)          0           None      conv_pw_6_relu[0][0]   
[30.05.2018 02:39:55] __________________________________________________________________________________________________
[30.05.2018 02:39:55] global_average_pooling2d_7 (Glo (None, 384)          0           None      conv_pw_7_relu[0][0]   
[30.05.2018 02:39:55] __________________________________________________________________________________________________
[30.05.2018 02:39:55] global_average_pooling2d_8 (Glo (None, 384)          0           None      conv_pw_8_relu[0][0]   
[30.05.2018 02:39:55] __________________________________________________________________________________________________
[30.05.2018 02:39:55] global_average_pooling2d_9 (Glo (None, 384)          0           None      conv_pw_9_relu[0][0]   
[30.05.2018 02:39:55] __________________________________________________________________________________________________
[30.05.2018 02:39:55] global_average_pooling2d_10 (Gl (None, 384)          0           None      conv_pw_10_relu[0][0]  
[30.05.2018 02:39:55] __________________________________________________________________________________________________
[30.05.2018 02:39:55] global_average_pooling2d_11 (Gl (None, 384)          0           None      conv_pw_11_relu[0][0]  
[30.05.2018 02:39:55] __________________________________________________________________________________________________
[30.05.2018 02:39:55] global_average_pooling2d_12 (Gl (None, 768)          0           None      conv_pw_12_relu[0][0]  
[30.05.2018 02:39:55] __________________________________________________________________________________________________
[30.05.2018 02:39:55] global_average_pooling2d_13 (Gl (None, 768)          0           None      conv_pw_13_relu[0][0]  
[30.05.2018 02:39:55] __________________________________________________________________________________________________
[30.05.2018 02:39:55] flatten_1 (Flatten)             (None, 37632)        0           None      conv_pw_13_relu[0][0]  
[30.05.2018 02:39:55] __________________________________________________________________________________________________
[30.05.2018 02:39:55] dropout_2 (Dropout)             (None, 48)           0           None      global_average_pooling2
[30.05.2018 02:39:55] __________________________________________________________________________________________________
[30.05.2018 02:39:55] dropout_3 (Dropout)             (None, 96)           0           None      global_average_pooling2
[30.05.2018 02:39:55] __________________________________________________________________________________________________
[30.05.2018 02:39:55] dropout_4 (Dropout)             (None, 96)           0           None      global_average_pooling2
[30.05.2018 02:39:55] __________________________________________________________________________________________________
[30.05.2018 02:39:55] dropout_5 (Dropout)             (None, 192)          0           None      global_average_pooling2
[30.05.2018 02:39:55] __________________________________________________________________________________________________
[30.05.2018 02:39:55] dropout_6 (Dropout)             (None, 192)          0           None      global_average_pooling2
[30.05.2018 02:39:55] __________________________________________________________________________________________________
[30.05.2018 02:39:55] dropout_7 (Dropout)             (None, 384)          0           None      global_average_pooling2
[30.05.2018 02:39:55] __________________________________________________________________________________________________
[30.05.2018 02:39:55] dropout_8 (Dropout)             (None, 384)          0           None      global_average_pooling2
[30.05.2018 02:39:55] __________________________________________________________________________________________________
[30.05.2018 02:39:55] dropout_9 (Dropout)             (None, 384)          0           None      global_average_pooling2
[30.05.2018 02:39:55] __________________________________________________________________________________________________
[30.05.2018 02:39:55] dropout_10 (Dropout)            (None, 384)          0           None      global_average_pooling2
[30.05.2018 02:39:55] __________________________________________________________________________________________________
[30.05.2018 02:39:55] dropout_11 (Dropout)            (None, 384)          0           None      global_average_pooling2
[30.05.2018 02:39:55] __________________________________________________________________________________________________
[30.05.2018 02:39:55] dropout_12 (Dropout)            (None, 384)          0           None      global_average_pooling2
[30.05.2018 02:39:55] __________________________________________________________________________________________________
[30.05.2018 02:39:55] dropout_13 (Dropout)            (None, 768)          0           None      global_average_pooling2
[30.05.2018 02:39:55] __________________________________________________________________________________________________
[30.05.2018 02:39:55] dropout_14 (Dropout)            (None, 768)          0           None      global_average_pooling2
[30.05.2018 02:39:55] __________________________________________________________________________________________________
[30.05.2018 02:39:55] dropout_1 (Dropout)             (None, 37632)        0           None      flatten_1[0][0]        
[30.05.2018 02:39:55] __________________________________________________________________________________________________
[30.05.2018 02:39:55] intermediate_conv_pw_1_relu (De (None, 100)          4900        4800      dropout_2[0][0]        
[30.05.2018 02:39:55] __________________________________________________________________________________________________
[30.05.2018 02:39:55] intermediate_conv_pw_2_relu (De (None, 100)          9700        9600      dropout_3[0][0]        
[30.05.2018 02:39:55] __________________________________________________________________________________________________
[30.05.2018 02:39:55] intermediate_conv_pw_3_relu (De (None, 100)          9700        9600      dropout_4[0][0]        
[30.05.2018 02:39:55] __________________________________________________________________________________________________
[30.05.2018 02:39:55] intermediate_conv_pw_4_relu (De (None, 100)          19300       19200     dropout_5[0][0]        
[30.05.2018 02:39:55] __________________________________________________________________________________________________
[30.05.2018 02:39:55] intermediate_conv_pw_5_relu (De (None, 100)          19300       19200     dropout_6[0][0]        
[30.05.2018 02:39:55] __________________________________________________________________________________________________
[30.05.2018 02:39:55] intermediate_conv_pw_6_relu (De (None, 100)          38500       38400     dropout_7[0][0]        
[30.05.2018 02:39:55] __________________________________________________________________________________________________
[30.05.2018 02:39:55] intermediate_conv_pw_7_relu (De (None, 100)          38500       38400     dropout_8[0][0]        
[30.05.2018 02:39:55] __________________________________________________________________________________________________
[30.05.2018 02:39:55] intermediate_conv_pw_8_relu (De (None, 100)          38500       38400     dropout_9[0][0]        
[30.05.2018 02:39:55] __________________________________________________________________________________________________
[30.05.2018 02:39:55] intermediate_conv_pw_9_relu (De (None, 100)          38500       38400     dropout_10[0][0]       
[30.05.2018 02:39:55] __________________________________________________________________________________________________
[30.05.2018 02:39:55] intermediate_conv_pw_10_relu (D (None, 100)          38500       38400     dropout_11[0][0]       
[30.05.2018 02:39:55] __________________________________________________________________________________________________
[30.05.2018 02:39:55] intermediate_conv_pw_11_relu (D (None, 100)          38500       38400     dropout_12[0][0]       
[30.05.2018 02:39:55] __________________________________________________________________________________________________
[30.05.2018 02:39:55] intermediate_conv_pw_12_relu (D (None, 100)          76900       76800     dropout_13[0][0]       
[30.05.2018 02:39:55] __________________________________________________________________________________________________
[30.05.2018 02:39:55] intermediate_conv_pw_13_relu (D (None, 100)          76900       76800     dropout_14[0][0]       
[30.05.2018 02:39:55] __________________________________________________________________________________________________
[30.05.2018 02:39:55] final_output (Dense)            (None, 100)          3763300     3763200   dropout_1[0][0]        
[30.05.2018 02:39:55] ==================================================================================================
[30.05.2018 02:39:55] Total params: 6,043,976
[30.05.2018 02:39:55] Trainable params: 4,211,000
[30.05.2018 02:39:55] Non-trainable params: 1,832,976
[30.05.2018 02:39:55] Total floating point operations: 315,802,560
[30.05.2018 02:39:55] __________________________________________________________________________________________________
…
