…
WARNING:tensorflow:From /home/yi/anaconda3/lib/python3.6/site-packages/Keras-2.0.4-py3.6.egg/keras/backend/tensorflow_backend.py:1257: calling reduce_mean (from tensorflow.python.ops.math_ops) with keep_dims is deprecated and will be removed in a future version.
Instructions for updating:
keep_dims is deprecated, use keepdims instead
[30.05.2018 00:27:10] Model summary:
[30.05.2018 00:27:10] ____________________________________________________________________________________________________
[30.05.2018 00:27:10] Layer (type)                     Output Shape          Param #     Ops #     Connected to           
[30.05.2018 00:27:10] ====================================================================================================
[30.05.2018 00:27:10] input_1 (InputLayer)             (None, 224, 224, 3)   0                     
[30.05.2018 00:27:10] ____________________________________________________________________________________________________
[30.05.2018 00:27:10] conv2d_1 (Conv2D)                (None, 111, 111, 32)  864         input_1[0]
[30.05.2018 00:27:10] ____________________________________________________________________________________________________
[30.05.2018 00:27:10] batch_normalization_1 (BatchNorm (None, 111, 111, 32)  96          conv2d_1[0
[30.05.2018 00:27:10] ____________________________________________________________________________________________________
[30.05.2018 00:27:10] activation_1 (Activation)        (None, 111, 111, 32)  0           batch_norm
[30.05.2018 00:27:10] ____________________________________________________________________________________________________
[30.05.2018 00:27:10] conv2d_2 (Conv2D)                (None, 109, 109, 32)  9216        activation
[30.05.2018 00:27:10] ____________________________________________________________________________________________________
[30.05.2018 00:27:10] batch_normalization_2 (BatchNorm (None, 109, 109, 32)  96          conv2d_2[0
[30.05.2018 00:27:10] ____________________________________________________________________________________________________
[30.05.2018 00:27:10] activation_2 (Activation)        (None, 109, 109, 32)  0           batch_norm
[30.05.2018 00:27:10] ____________________________________________________________________________________________________
[30.05.2018 00:27:10] conv2d_3 (Conv2D)                (None, 109, 109, 64)  18432       activation
[30.05.2018 00:27:10] ____________________________________________________________________________________________________
[30.05.2018 00:27:10] batch_normalization_3 (BatchNorm (None, 109, 109, 64)  192         conv2d_3[0
[30.05.2018 00:27:10] ____________________________________________________________________________________________________
[30.05.2018 00:27:10] activation_3 (Activation)        (None, 109, 109, 64)  0           batch_norm
[30.05.2018 00:27:10] ____________________________________________________________________________________________________
[30.05.2018 00:27:10] max_pooling2d_1 (MaxPooling2D)   (None, 54, 54, 64)    0           activation
[30.05.2018 00:27:10] ____________________________________________________________________________________________________
[30.05.2018 00:27:10] conv2d_4 (Conv2D)                (None, 54, 54, 80)    5120        max_poolin
[30.05.2018 00:27:10] ____________________________________________________________________________________________________
[30.05.2018 00:27:10] batch_normalization_4 (BatchNorm (None, 54, 54, 80)    240         conv2d_4[0
[30.05.2018 00:27:10] ____________________________________________________________________________________________________
[30.05.2018 00:27:10] activation_4 (Activation)        (None, 54, 54, 80)    0           batch_norm
[30.05.2018 00:27:10] ____________________________________________________________________________________________________
[30.05.2018 00:27:10] conv2d_5 (Conv2D)                (None, 52, 52, 192)   138240      activation
[30.05.2018 00:27:10] ____________________________________________________________________________________________________
[30.05.2018 00:27:10] batch_normalization_5 (BatchNorm (None, 52, 52, 192)   576         conv2d_5[0
[30.05.2018 00:27:10] ____________________________________________________________________________________________________
[30.05.2018 00:27:10] activation_5 (Activation)        (None, 52, 52, 192)   0           batch_norm
[30.05.2018 00:27:10] ____________________________________________________________________________________________________
[30.05.2018 00:27:10] max_pooling2d_2 (MaxPooling2D)   (None, 25, 25, 192)   0           activation
[30.05.2018 00:27:10] ____________________________________________________________________________________________________
[30.05.2018 00:27:10] conv2d_9 (Conv2D)                (None, 25, 25, 64)    12288       max_poolin
[30.05.2018 00:27:10] ____________________________________________________________________________________________________
[30.05.2018 00:27:10] batch_normalization_9 (BatchNorm (None, 25, 25, 64)    192         conv2d_9[0
[30.05.2018 00:27:10] ____________________________________________________________________________________________________
[30.05.2018 00:27:10] activation_9 (Activation)        (None, 25, 25, 64)    0           batch_norm
[30.05.2018 00:27:10] ____________________________________________________________________________________________________
[30.05.2018 00:27:10] conv2d_7 (Conv2D)                (None, 25, 25, 48)    9216        max_poolin
[30.05.2018 00:27:10] ____________________________________________________________________________________________________
[30.05.2018 00:27:10] conv2d_10 (Conv2D)               (None, 25, 25, 96)    55296       activation
[30.05.2018 00:27:10] ____________________________________________________________________________________________________
[30.05.2018 00:27:10] batch_normalization_7 (BatchNorm (None, 25, 25, 48)    144         conv2d_7[0
[30.05.2018 00:27:10] ____________________________________________________________________________________________________
[30.05.2018 00:27:10] batch_normalization_10 (BatchNor (None, 25, 25, 96)    288         conv2d_10[
[30.05.2018 00:27:10] ____________________________________________________________________________________________________
[30.05.2018 00:27:10] activation_7 (Activation)        (None, 25, 25, 48)    0           batch_norm
[30.05.2018 00:27:10] ____________________________________________________________________________________________________
[30.05.2018 00:27:10] activation_10 (Activation)       (None, 25, 25, 96)    0           batch_norm
[30.05.2018 00:27:10] ____________________________________________________________________________________________________
[30.05.2018 00:27:10] average_pooling2d_1 (AveragePool (None, 25, 25, 192)   0           max_poolin
[30.05.2018 00:27:10] ____________________________________________________________________________________________________
[30.05.2018 00:27:10] conv2d_6 (Conv2D)                (None, 25, 25, 64)    12288       max_poolin
[30.05.2018 00:27:10] ____________________________________________________________________________________________________
[30.05.2018 00:27:10] conv2d_8 (Conv2D)                (None, 25, 25, 64)    76800       activation
[30.05.2018 00:27:10] ____________________________________________________________________________________________________
[30.05.2018 00:27:10] conv2d_11 (Conv2D)               (None, 25, 25, 96)    82944       activation
[30.05.2018 00:27:10] ____________________________________________________________________________________________________
[30.05.2018 00:27:10] conv2d_12 (Conv2D)               (None, 25, 25, 32)    6144        average_po
[30.05.2018 00:27:10] ____________________________________________________________________________________________________
[30.05.2018 00:27:10] batch_normalization_6 (BatchNorm (None, 25, 25, 64)    192         conv2d_6[0
[30.05.2018 00:27:10] ____________________________________________________________________________________________________
[30.05.2018 00:27:10] batch_normalization_8 (BatchNorm (None, 25, 25, 64)    192         conv2d_8[0
[30.05.2018 00:27:10] ____________________________________________________________________________________________________
[30.05.2018 00:27:10] batch_normalization_11 (BatchNor (None, 25, 25, 96)    288         conv2d_11[
[30.05.2018 00:27:10] ____________________________________________________________________________________________________
[30.05.2018 00:27:10] batch_normalization_12 (BatchNor (None, 25, 25, 32)    96          conv2d_12[
[30.05.2018 00:27:10] ____________________________________________________________________________________________________
[30.05.2018 00:27:10] activation_6 (Activation)        (None, 25, 25, 64)    0           batch_norm
[30.05.2018 00:27:10] ____________________________________________________________________________________________________
[30.05.2018 00:27:10] activation_8 (Activation)        (None, 25, 25, 64)    0           batch_norm
[30.05.2018 00:27:10] ____________________________________________________________________________________________________
[30.05.2018 00:27:10] activation_11 (Activation)       (None, 25, 25, 96)    0           batch_norm
[30.05.2018 00:27:10] ____________________________________________________________________________________________________
[30.05.2018 00:27:10] activation_12 (Activation)       (None, 25, 25, 32)    0           batch_norm
[30.05.2018 00:27:10] ____________________________________________________________________________________________________
[30.05.2018 00:27:10] mixed0 (Concatenate)             (None, 25, 25, 256)   0           activation
[30.05.2018 00:27:10]                                                                    activation
[30.05.2018 00:27:10]                                                                    activation
[30.05.2018 00:27:10]                                                                    activation
[30.05.2018 00:27:10] ____________________________________________________________________________________________________
[30.05.2018 00:27:10] conv2d_16 (Conv2D)               (None, 25, 25, 64)    16384       mixed0[0][
[30.05.2018 00:27:10] ____________________________________________________________________________________________________
[30.05.2018 00:27:10] batch_normalization_16 (BatchNor (None, 25, 25, 64)    192         conv2d_16[
[30.05.2018 00:27:10] ____________________________________________________________________________________________________
[30.05.2018 00:27:10] activation_16 (Activation)       (None, 25, 25, 64)    0           batch_norm
[30.05.2018 00:27:10] ____________________________________________________________________________________________________
[30.05.2018 00:27:10] conv2d_14 (Conv2D)               (None, 25, 25, 48)    12288       mixed0[0][
[30.05.2018 00:27:10] ____________________________________________________________________________________________________
[30.05.2018 00:27:10] conv2d_17 (Conv2D)               (None, 25, 25, 96)    55296       activation
[30.05.2018 00:27:10] ____________________________________________________________________________________________________
[30.05.2018 00:27:10] batch_normalization_14 (BatchNor (None, 25, 25, 48)    144         conv2d_14[
[30.05.2018 00:27:10] ____________________________________________________________________________________________________
[30.05.2018 00:27:10] batch_normalization_17 (BatchNor (None, 25, 25, 96)    288         conv2d_17[
[30.05.2018 00:27:10] ____________________________________________________________________________________________________
[30.05.2018 00:27:10] activation_14 (Activation)       (None, 25, 25, 48)    0           batch_norm
[30.05.2018 00:27:10] ____________________________________________________________________________________________________
[30.05.2018 00:27:10] activation_17 (Activation)       (None, 25, 25, 96)    0           batch_norm
[30.05.2018 00:27:10] ____________________________________________________________________________________________________
[30.05.2018 00:27:10] average_pooling2d_2 (AveragePool (None, 25, 25, 256)   0           mixed0[0][
[30.05.2018 00:27:10] ____________________________________________________________________________________________________
[30.05.2018 00:27:10] conv2d_13 (Conv2D)               (None, 25, 25, 64)    16384       mixed0[0][
[30.05.2018 00:27:10] ____________________________________________________________________________________________________
[30.05.2018 00:27:10] conv2d_15 (Conv2D)               (None, 25, 25, 64)    76800       activation
[30.05.2018 00:27:10] ____________________________________________________________________________________________________
[30.05.2018 00:27:10] conv2d_18 (Conv2D)               (None, 25, 25, 96)    82944       activation
[30.05.2018 00:27:10] ____________________________________________________________________________________________________
[30.05.2018 00:27:10] conv2d_19 (Conv2D)               (None, 25, 25, 64)    16384       average_po
[30.05.2018 00:27:10] ____________________________________________________________________________________________________
[30.05.2018 00:27:10] batch_normalization_13 (BatchNor (None, 25, 25, 64)    192         conv2d_13[
[30.05.2018 00:27:10] ____________________________________________________________________________________________________
[30.05.2018 00:27:10] batch_normalization_15 (BatchNor (None, 25, 25, 64)    192         conv2d_15[
[30.05.2018 00:27:10] ____________________________________________________________________________________________________
[30.05.2018 00:27:10] batch_normalization_18 (BatchNor (None, 25, 25, 96)    288         conv2d_18[
[30.05.2018 00:27:10] ____________________________________________________________________________________________________
[30.05.2018 00:27:10] batch_normalization_19 (BatchNor (None, 25, 25, 64)    192         conv2d_19[
[30.05.2018 00:27:10] ____________________________________________________________________________________________________
[30.05.2018 00:27:10] activation_13 (Activation)       (None, 25, 25, 64)    0           batch_norm
[30.05.2018 00:27:10] ____________________________________________________________________________________________________
[30.05.2018 00:27:10] activation_15 (Activation)       (None, 25, 25, 64)    0           batch_norm
[30.05.2018 00:27:10] ____________________________________________________________________________________________________
[30.05.2018 00:27:10] activation_18 (Activation)       (None, 25, 25, 96)    0           batch_norm
[30.05.2018 00:27:10] ____________________________________________________________________________________________________
[30.05.2018 00:27:10] activation_19 (Activation)       (None, 25, 25, 64)    0           batch_norm
[30.05.2018 00:27:10] ____________________________________________________________________________________________________
[30.05.2018 00:27:10] mixed1 (Concatenate)             (None, 25, 25, 288)   0           activation
[30.05.2018 00:27:10]                                                                    activation
[30.05.2018 00:27:10]                                                                    activation
[30.05.2018 00:27:10]                                                                    activation
[30.05.2018 00:27:10] ____________________________________________________________________________________________________
[30.05.2018 00:27:10] conv2d_23 (Conv2D)               (None, 25, 25, 64)    18432       mixed1[0][
[30.05.2018 00:27:10] ____________________________________________________________________________________________________
[30.05.2018 00:27:10] batch_normalization_23 (BatchNor (None, 25, 25, 64)    192         conv2d_23[
[30.05.2018 00:27:10] ____________________________________________________________________________________________________
[30.05.2018 00:27:10] activation_23 (Activation)       (None, 25, 25, 64)    0           batch_norm
[30.05.2018 00:27:10] ____________________________________________________________________________________________________
[30.05.2018 00:27:10] conv2d_21 (Conv2D)               (None, 25, 25, 48)    13824       mixed1[0][
[30.05.2018 00:27:10] ____________________________________________________________________________________________________
[30.05.2018 00:27:10] conv2d_24 (Conv2D)               (None, 25, 25, 96)    55296       activation
[30.05.2018 00:27:10] ____________________________________________________________________________________________________
[30.05.2018 00:27:10] batch_normalization_21 (BatchNor (None, 25, 25, 48)    144         conv2d_21[
[30.05.2018 00:27:10] ____________________________________________________________________________________________________
[30.05.2018 00:27:10] batch_normalization_24 (BatchNor (None, 25, 25, 96)    288         conv2d_24[
[30.05.2018 00:27:10] ____________________________________________________________________________________________________
[30.05.2018 00:27:10] activation_21 (Activation)       (None, 25, 25, 48)    0           batch_norm
[30.05.2018 00:27:10] ____________________________________________________________________________________________________
[30.05.2018 00:27:10] activation_24 (Activation)       (None, 25, 25, 96)    0           batch_norm
[30.05.2018 00:27:10] ____________________________________________________________________________________________________
[30.05.2018 00:27:10] average_pooling2d_3 (AveragePool (None, 25, 25, 288)   0           mixed1[0][
[30.05.2018 00:27:10] ____________________________________________________________________________________________________
[30.05.2018 00:27:10] conv2d_20 (Conv2D)               (None, 25, 25, 64)    18432       mixed1[0][
[30.05.2018 00:27:10] ____________________________________________________________________________________________________
[30.05.2018 00:27:10] conv2d_22 (Conv2D)               (None, 25, 25, 64)    76800       activation
[30.05.2018 00:27:10] ____________________________________________________________________________________________________
[30.05.2018 00:27:10] conv2d_25 (Conv2D)               (None, 25, 25, 96)    82944       activation
[30.05.2018 00:27:10] ____________________________________________________________________________________________________
[30.05.2018 00:27:10] conv2d_26 (Conv2D)               (None, 25, 25, 64)    18432       average_po
[30.05.2018 00:27:10] ____________________________________________________________________________________________________
[30.05.2018 00:27:10] batch_normalization_20 (BatchNor (None, 25, 25, 64)    192         conv2d_20[
[30.05.2018 00:27:10] ____________________________________________________________________________________________________
[30.05.2018 00:27:10] batch_normalization_22 (BatchNor (None, 25, 25, 64)    192         conv2d_22[
[30.05.2018 00:27:10] ____________________________________________________________________________________________________
[30.05.2018 00:27:10] batch_normalization_25 (BatchNor (None, 25, 25, 96)    288         conv2d_25[
[30.05.2018 00:27:10] ____________________________________________________________________________________________________
[30.05.2018 00:27:10] batch_normalization_26 (BatchNor (None, 25, 25, 64)    192         conv2d_26[
[30.05.2018 00:27:10] ____________________________________________________________________________________________________
[30.05.2018 00:27:10] activation_20 (Activation)       (None, 25, 25, 64)    0           batch_norm
[30.05.2018 00:27:10] ____________________________________________________________________________________________________
[30.05.2018 00:27:10] activation_22 (Activation)       (None, 25, 25, 64)    0           batch_norm
[30.05.2018 00:27:10] ____________________________________________________________________________________________________
[30.05.2018 00:27:10] activation_25 (Activation)       (None, 25, 25, 96)    0           batch_norm
[30.05.2018 00:27:10] ____________________________________________________________________________________________________
[30.05.2018 00:27:10] activation_26 (Activation)       (None, 25, 25, 64)    0           batch_norm
[30.05.2018 00:27:10] ____________________________________________________________________________________________________
[30.05.2018 00:27:10] mixed2 (Concatenate)             (None, 25, 25, 288)   0           activation
[30.05.2018 00:27:10]                                                                    activation
[30.05.2018 00:27:10]                                                                    activation
[30.05.2018 00:27:10]                                                                    activation
[30.05.2018 00:27:10] ____________________________________________________________________________________________________
[30.05.2018 00:27:10] conv2d_28 (Conv2D)               (None, 25, 25, 64)    18432       mixed2[0][
[30.05.2018 00:27:10] ____________________________________________________________________________________________________
[30.05.2018 00:27:10] batch_normalization_28 (BatchNor (None, 25, 25, 64)    192         conv2d_28[
[30.05.2018 00:27:10] ____________________________________________________________________________________________________
[30.05.2018 00:27:10] activation_28 (Activation)       (None, 25, 25, 64)    0           batch_norm
[30.05.2018 00:27:10] ____________________________________________________________________________________________________
[30.05.2018 00:27:10] conv2d_29 (Conv2D)               (None, 25, 25, 96)    55296       activation
[30.05.2018 00:27:10] ____________________________________________________________________________________________________
[30.05.2018 00:27:10] batch_normalization_29 (BatchNor (None, 25, 25, 96)    288         conv2d_29[
[30.05.2018 00:27:10] ____________________________________________________________________________________________________
[30.05.2018 00:27:10] activation_29 (Activation)       (None, 25, 25, 96)    0           batch_norm
[30.05.2018 00:27:10] ____________________________________________________________________________________________________
[30.05.2018 00:27:10] conv2d_27 (Conv2D)               (None, 12, 12, 384)   995328      mixed2[0][
[30.05.2018 00:27:10] ____________________________________________________________________________________________________
[30.05.2018 00:27:10] conv2d_30 (Conv2D)               (None, 12, 12, 96)    82944       activation
[30.05.2018 00:27:10] ____________________________________________________________________________________________________
[30.05.2018 00:27:10] batch_normalization_27 (BatchNor (None, 12, 12, 384)   1152        conv2d_27[
[30.05.2018 00:27:10] ____________________________________________________________________________________________________
[30.05.2018 00:27:10] batch_normalization_30 (BatchNor (None, 12, 12, 96)    288         conv2d_30[
[30.05.2018 00:27:10] ____________________________________________________________________________________________________
[30.05.2018 00:27:10] activation_27 (Activation)       (None, 12, 12, 384)   0           batch_norm
[30.05.2018 00:27:10] ____________________________________________________________________________________________________
[30.05.2018 00:27:10] activation_30 (Activation)       (None, 12, 12, 96)    0           batch_norm
[30.05.2018 00:27:10] ____________________________________________________________________________________________________
[30.05.2018 00:27:10] max_pooling2d_3 (MaxPooling2D)   (None, 12, 12, 288)   0           mixed2[0][
[30.05.2018 00:27:10] ____________________________________________________________________________________________________
[30.05.2018 00:27:10] mixed3 (Concatenate)             (None, 12, 12, 768)   0           activation
[30.05.2018 00:27:10]                                                                    activation
[30.05.2018 00:27:10]                                                                    max_poolin
[30.05.2018 00:27:10] ____________________________________________________________________________________________________
[30.05.2018 00:27:10] conv2d_35 (Conv2D)               (None, 12, 12, 128)   98304       mixed3[0][
[30.05.2018 00:27:10] ____________________________________________________________________________________________________
[30.05.2018 00:27:10] batch_normalization_35 (BatchNor (None, 12, 12, 128)   384         conv2d_35[
[30.05.2018 00:27:10] ____________________________________________________________________________________________________
[30.05.2018 00:27:10] activation_35 (Activation)       (None, 12, 12, 128)   0           batch_norm
[30.05.2018 00:27:10] ____________________________________________________________________________________________________
[30.05.2018 00:27:10] conv2d_36 (Conv2D)               (None, 12, 12, 128)   114688      activation
[30.05.2018 00:27:10] ____________________________________________________________________________________________________
[30.05.2018 00:27:10] batch_normalization_36 (BatchNor (None, 12, 12, 128)   384         conv2d_36[
[30.05.2018 00:27:10] ____________________________________________________________________________________________________
[30.05.2018 00:27:10] activation_36 (Activation)       (None, 12, 12, 128)   0           batch_norm
[30.05.2018 00:27:10] ____________________________________________________________________________________________________
[30.05.2018 00:27:10] conv2d_32 (Conv2D)               (None, 12, 12, 128)   98304       mixed3[0][
[30.05.2018 00:27:10] ____________________________________________________________________________________________________
[30.05.2018 00:27:10] conv2d_37 (Conv2D)               (None, 12, 12, 128)   114688      activation
[30.05.2018 00:27:10] ____________________________________________________________________________________________________
[30.05.2018 00:27:10] batch_normalization_32 (BatchNor (None, 12, 12, 128)   384         conv2d_32[
[30.05.2018 00:27:10] ____________________________________________________________________________________________________
[30.05.2018 00:27:10] batch_normalization_37 (BatchNor (None, 12, 12, 128)   384         conv2d_37[
[30.05.2018 00:27:10] ____________________________________________________________________________________________________
[30.05.2018 00:27:10] activation_32 (Activation)       (None, 12, 12, 128)   0           batch_norm
[30.05.2018 00:27:10] ____________________________________________________________________________________________________
[30.05.2018 00:27:10] activation_37 (Activation)       (None, 12, 12, 128)   0           batch_norm
[30.05.2018 00:27:10] ____________________________________________________________________________________________________
[30.05.2018 00:27:10] conv2d_33 (Conv2D)               (None, 12, 12, 128)   114688      activation
[30.05.2018 00:27:10] ____________________________________________________________________________________________________
[30.05.2018 00:27:10] conv2d_38 (Conv2D)               (None, 12, 12, 128)   114688      activation
[30.05.2018 00:27:10] ____________________________________________________________________________________________________
[30.05.2018 00:27:10] batch_normalization_33 (BatchNor (None, 12, 12, 128)   384         conv2d_33[
[30.05.2018 00:27:10] ____________________________________________________________________________________________________
[30.05.2018 00:27:10] batch_normalization_38 (BatchNor (None, 12, 12, 128)   384         conv2d_38[
[30.05.2018 00:27:10] ____________________________________________________________________________________________________
[30.05.2018 00:27:10] activation_33 (Activation)       (None, 12, 12, 128)   0           batch_norm
[30.05.2018 00:27:10] ____________________________________________________________________________________________________
[30.05.2018 00:27:10] activation_38 (Activation)       (None, 12, 12, 128)   0           batch_norm
[30.05.2018 00:27:10] ____________________________________________________________________________________________________
[30.05.2018 00:27:10] average_pooling2d_4 (AveragePool (None, 12, 12, 768)   0           mixed3[0][
[30.05.2018 00:27:10] ____________________________________________________________________________________________________
[30.05.2018 00:27:10] conv2d_31 (Conv2D)               (None, 12, 12, 192)   147456      mixed3[0][
[30.05.2018 00:27:10] ____________________________________________________________________________________________________
[30.05.2018 00:27:10] conv2d_34 (Conv2D)               (None, 12, 12, 192)   172032      activation
[30.05.2018 00:27:10] ____________________________________________________________________________________________________
[30.05.2018 00:27:10] conv2d_39 (Conv2D)               (None, 12, 12, 192)   172032      activation
[30.05.2018 00:27:10] ____________________________________________________________________________________________________
[30.05.2018 00:27:10] conv2d_40 (Conv2D)               (None, 12, 12, 192)   147456      average_po
[30.05.2018 00:27:10] ____________________________________________________________________________________________________
[30.05.2018 00:27:10] batch_normalization_31 (BatchNor (None, 12, 12, 192)   576         conv2d_31[
[30.05.2018 00:27:10] ____________________________________________________________________________________________________
[30.05.2018 00:27:10] batch_normalization_34 (BatchNor (None, 12, 12, 192)   576         conv2d_34[
[30.05.2018 00:27:10] ____________________________________________________________________________________________________
[30.05.2018 00:27:10] batch_normalization_39 (BatchNor (None, 12, 12, 192)   576         conv2d_39[
[30.05.2018 00:27:10] ____________________________________________________________________________________________________
[30.05.2018 00:27:10] batch_normalization_40 (BatchNor (None, 12, 12, 192)   576         conv2d_40[
[30.05.2018 00:27:10] ____________________________________________________________________________________________________
[30.05.2018 00:27:10] activation_31 (Activation)       (None, 12, 12, 192)   0           batch_norm
[30.05.2018 00:27:10] ____________________________________________________________________________________________________
[30.05.2018 00:27:10] activation_34 (Activation)       (None, 12, 12, 192)   0           batch_norm
[30.05.2018 00:27:10] ____________________________________________________________________________________________________
[30.05.2018 00:27:10] activation_39 (Activation)       (None, 12, 12, 192)   0           batch_norm
[30.05.2018 00:27:10] ____________________________________________________________________________________________________
[30.05.2018 00:27:10] activation_40 (Activation)       (None, 12, 12, 192)   0           batch_norm
[30.05.2018 00:27:10] ____________________________________________________________________________________________________
[30.05.2018 00:27:10] mixed4 (Concatenate)             (None, 12, 12, 768)   0           activation
[30.05.2018 00:27:10]                                                                    activation
[30.05.2018 00:27:10]                                                                    activation
[30.05.2018 00:27:10]                                                                    activation
[30.05.2018 00:27:10] ____________________________________________________________________________________________________
[30.05.2018 00:27:10] conv2d_45 (Conv2D)               (None, 12, 12, 160)   122880      mixed4[0][
[30.05.2018 00:27:10] ____________________________________________________________________________________________________
[30.05.2018 00:27:10] batch_normalization_45 (BatchNor (None, 12, 12, 160)   480         conv2d_45[
[30.05.2018 00:27:10] ____________________________________________________________________________________________________
[30.05.2018 00:27:10] activation_45 (Activation)       (None, 12, 12, 160)   0           batch_norm
[30.05.2018 00:27:10] ____________________________________________________________________________________________________
[30.05.2018 00:27:10] conv2d_46 (Conv2D)               (None, 12, 12, 160)   179200      activation
[30.05.2018 00:27:10] ____________________________________________________________________________________________________
[30.05.2018 00:27:10] batch_normalization_46 (BatchNor (None, 12, 12, 160)   480         conv2d_46[
[30.05.2018 00:27:10] ____________________________________________________________________________________________________
[30.05.2018 00:27:10] activation_46 (Activation)       (None, 12, 12, 160)   0           batch_norm
[30.05.2018 00:27:10] ____________________________________________________________________________________________________
[30.05.2018 00:27:10] conv2d_42 (Conv2D)               (None, 12, 12, 160)   122880      mixed4[0][
[30.05.2018 00:27:10] ____________________________________________________________________________________________________
[30.05.2018 00:27:10] conv2d_47 (Conv2D)               (None, 12, 12, 160)   179200      activation
[30.05.2018 00:27:10] ____________________________________________________________________________________________________
[30.05.2018 00:27:10] batch_normalization_42 (BatchNor (None, 12, 12, 160)   480         conv2d_42[
[30.05.2018 00:27:10] ____________________________________________________________________________________________________
[30.05.2018 00:27:10] batch_normalization_47 (BatchNor (None, 12, 12, 160)   480         conv2d_47[
[30.05.2018 00:27:10] ____________________________________________________________________________________________________
[30.05.2018 00:27:10] activation_42 (Activation)       (None, 12, 12, 160)   0           batch_norm
[30.05.2018 00:27:10] ____________________________________________________________________________________________________
[30.05.2018 00:27:10] activation_47 (Activation)       (None, 12, 12, 160)   0           batch_norm
[30.05.2018 00:27:10] ____________________________________________________________________________________________________
[30.05.2018 00:27:10] conv2d_43 (Conv2D)               (None, 12, 12, 160)   179200      activation
[30.05.2018 00:27:10] ____________________________________________________________________________________________________
[30.05.2018 00:27:10] conv2d_48 (Conv2D)               (None, 12, 12, 160)   179200      activation
[30.05.2018 00:27:10] ____________________________________________________________________________________________________
[30.05.2018 00:27:10] batch_normalization_43 (BatchNor (None, 12, 12, 160)   480         conv2d_43[
[30.05.2018 00:27:10] ____________________________________________________________________________________________________
[30.05.2018 00:27:10] batch_normalization_48 (BatchNor (None, 12, 12, 160)   480         conv2d_48[
[30.05.2018 00:27:10] ____________________________________________________________________________________________________
[30.05.2018 00:27:10] activation_43 (Activation)       (None, 12, 12, 160)   0           batch_norm
[30.05.2018 00:27:10] ____________________________________________________________________________________________________
[30.05.2018 00:27:10] activation_48 (Activation)       (None, 12, 12, 160)   0           batch_norm
[30.05.2018 00:27:10] ____________________________________________________________________________________________________
[30.05.2018 00:27:10] average_pooling2d_5 (AveragePool (None, 12, 12, 768)   0           mixed4[0][
[30.05.2018 00:27:10] ____________________________________________________________________________________________________
[30.05.2018 00:27:10] conv2d_41 (Conv2D)               (None, 12, 12, 192)   147456      mixed4[0][
[30.05.2018 00:27:10] ____________________________________________________________________________________________________
[30.05.2018 00:27:10] conv2d_44 (Conv2D)               (None, 12, 12, 192)   215040      activation
[30.05.2018 00:27:10] ____________________________________________________________________________________________________
[30.05.2018 00:27:10] conv2d_49 (Conv2D)               (None, 12, 12, 192)   215040      activation
[30.05.2018 00:27:10] ____________________________________________________________________________________________________
[30.05.2018 00:27:10] conv2d_50 (Conv2D)               (None, 12, 12, 192)   147456      average_po
[30.05.2018 00:27:10] ____________________________________________________________________________________________________
[30.05.2018 00:27:10] batch_normalization_41 (BatchNor (None, 12, 12, 192)   576         conv2d_41[
[30.05.2018 00:27:10] ____________________________________________________________________________________________________
[30.05.2018 00:27:10] batch_normalization_44 (BatchNor (None, 12, 12, 192)   576         conv2d_44[
[30.05.2018 00:27:10] ____________________________________________________________________________________________________
[30.05.2018 00:27:10] batch_normalization_49 (BatchNor (None, 12, 12, 192)   576         conv2d_49[
[30.05.2018 00:27:10] ____________________________________________________________________________________________________
[30.05.2018 00:27:10] batch_normalization_50 (BatchNor (None, 12, 12, 192)   576         conv2d_50[
[30.05.2018 00:27:10] ____________________________________________________________________________________________________
[30.05.2018 00:27:10] activation_41 (Activation)       (None, 12, 12, 192)   0           batch_norm
[30.05.2018 00:27:10] ____________________________________________________________________________________________________
[30.05.2018 00:27:10] activation_44 (Activation)       (None, 12, 12, 192)   0           batch_norm
[30.05.2018 00:27:10] ____________________________________________________________________________________________________
[30.05.2018 00:27:10] activation_49 (Activation)       (None, 12, 12, 192)   0           batch_norm
[30.05.2018 00:27:10] ____________________________________________________________________________________________________
[30.05.2018 00:27:10] activation_50 (Activation)       (None, 12, 12, 192)   0           batch_norm
[30.05.2018 00:27:10] ____________________________________________________________________________________________________
[30.05.2018 00:27:10] mixed5 (Concatenate)             (None, 12, 12, 768)   0           activation
[30.05.2018 00:27:10]                                                                    activation
[30.05.2018 00:27:10]                                                                    activation
[30.05.2018 00:27:10]                                                                    activation
[30.05.2018 00:27:10] ____________________________________________________________________________________________________
[30.05.2018 00:27:10] conv2d_55 (Conv2D)               (None, 12, 12, 160)   122880      mixed5[0][
[30.05.2018 00:27:10] ____________________________________________________________________________________________________
[30.05.2018 00:27:10] batch_normalization_55 (BatchNor (None, 12, 12, 160)   480         conv2d_55[
[30.05.2018 00:27:10] ____________________________________________________________________________________________________
[30.05.2018 00:27:10] activation_55 (Activation)       (None, 12, 12, 160)   0           batch_norm
[30.05.2018 00:27:10] ____________________________________________________________________________________________________
[30.05.2018 00:27:10] conv2d_56 (Conv2D)               (None, 12, 12, 160)   179200      activation
[30.05.2018 00:27:10] ____________________________________________________________________________________________________
[30.05.2018 00:27:10] batch_normalization_56 (BatchNor (None, 12, 12, 160)   480         conv2d_56[
[30.05.2018 00:27:10] ____________________________________________________________________________________________________
[30.05.2018 00:27:10] activation_56 (Activation)       (None, 12, 12, 160)   0           batch_norm
[30.05.2018 00:27:10] ____________________________________________________________________________________________________
[30.05.2018 00:27:10] conv2d_52 (Conv2D)               (None, 12, 12, 160)   122880      mixed5[0][
[30.05.2018 00:27:10] ____________________________________________________________________________________________________
[30.05.2018 00:27:10] conv2d_57 (Conv2D)               (None, 12, 12, 160)   179200      activation
[30.05.2018 00:27:10] ____________________________________________________________________________________________________
[30.05.2018 00:27:10] batch_normalization_52 (BatchNor (None, 12, 12, 160)   480         conv2d_52[
[30.05.2018 00:27:10] ____________________________________________________________________________________________________
[30.05.2018 00:27:10] batch_normalization_57 (BatchNor (None, 12, 12, 160)   480         conv2d_57[
[30.05.2018 00:27:10] ____________________________________________________________________________________________________
[30.05.2018 00:27:10] activation_52 (Activation)       (None, 12, 12, 160)   0           batch_norm
[30.05.2018 00:27:10] ____________________________________________________________________________________________________
[30.05.2018 00:27:10] activation_57 (Activation)       (None, 12, 12, 160)   0           batch_norm
[30.05.2018 00:27:10] ____________________________________________________________________________________________________
[30.05.2018 00:27:10] conv2d_53 (Conv2D)               (None, 12, 12, 160)   179200      activation
[30.05.2018 00:27:10] ____________________________________________________________________________________________________
[30.05.2018 00:27:10] conv2d_58 (Conv2D)               (None, 12, 12, 160)   179200      activation
[30.05.2018 00:27:10] ____________________________________________________________________________________________________
[30.05.2018 00:27:10] batch_normalization_53 (BatchNor (None, 12, 12, 160)   480         conv2d_53[
[30.05.2018 00:27:10] ____________________________________________________________________________________________________
[30.05.2018 00:27:10] batch_normalization_58 (BatchNor (None, 12, 12, 160)   480         conv2d_58[
[30.05.2018 00:27:10] ____________________________________________________________________________________________________
[30.05.2018 00:27:10] activation_53 (Activation)       (None, 12, 12, 160)   0           batch_norm
[30.05.2018 00:27:10] ____________________________________________________________________________________________________
[30.05.2018 00:27:10] activation_58 (Activation)       (None, 12, 12, 160)   0           batch_norm
[30.05.2018 00:27:10] ____________________________________________________________________________________________________
[30.05.2018 00:27:10] average_pooling2d_6 (AveragePool (None, 12, 12, 768)   0           mixed5[0][
[30.05.2018 00:27:10] ____________________________________________________________________________________________________
[30.05.2018 00:27:10] conv2d_51 (Conv2D)               (None, 12, 12, 192)   147456      mixed5[0][
[30.05.2018 00:27:10] ____________________________________________________________________________________________________
[30.05.2018 00:27:10] conv2d_54 (Conv2D)               (None, 12, 12, 192)   215040      activation
[30.05.2018 00:27:10] ____________________________________________________________________________________________________
[30.05.2018 00:27:10] conv2d_59 (Conv2D)               (None, 12, 12, 192)   215040      activation
[30.05.2018 00:27:10] ____________________________________________________________________________________________________
[30.05.2018 00:27:10] conv2d_60 (Conv2D)               (None, 12, 12, 192)   147456      average_po
[30.05.2018 00:27:10] ____________________________________________________________________________________________________
[30.05.2018 00:27:10] batch_normalization_51 (BatchNor (None, 12, 12, 192)   576         conv2d_51[
[30.05.2018 00:27:10] ____________________________________________________________________________________________________
[30.05.2018 00:27:10] batch_normalization_54 (BatchNor (None, 12, 12, 192)   576         conv2d_54[
[30.05.2018 00:27:10] ____________________________________________________________________________________________________
[30.05.2018 00:27:10] batch_normalization_59 (BatchNor (None, 12, 12, 192)   576         conv2d_59[
[30.05.2018 00:27:10] ____________________________________________________________________________________________________
[30.05.2018 00:27:10] batch_normalization_60 (BatchNor (None, 12, 12, 192)   576         conv2d_60[
[30.05.2018 00:27:10] ____________________________________________________________________________________________________
[30.05.2018 00:27:10] activation_51 (Activation)       (None, 12, 12, 192)   0           batch_norm
[30.05.2018 00:27:10] ____________________________________________________________________________________________________
[30.05.2018 00:27:10] activation_54 (Activation)       (None, 12, 12, 192)   0           batch_norm
[30.05.2018 00:27:10] ____________________________________________________________________________________________________
[30.05.2018 00:27:10] activation_59 (Activation)       (None, 12, 12, 192)   0           batch_norm
[30.05.2018 00:27:10] ____________________________________________________________________________________________________
[30.05.2018 00:27:10] activation_60 (Activation)       (None, 12, 12, 192)   0           batch_norm
[30.05.2018 00:27:10] ____________________________________________________________________________________________________
[30.05.2018 00:27:10] mixed6 (Concatenate)             (None, 12, 12, 768)   0           activation
[30.05.2018 00:27:10]                                                                    activation
[30.05.2018 00:27:10]                                                                    activation
[30.05.2018 00:27:10]                                                                    activation
[30.05.2018 00:27:10] ____________________________________________________________________________________________________
[30.05.2018 00:27:10] conv2d_65 (Conv2D)               (None, 12, 12, 192)   147456      mixed6[0][
[30.05.2018 00:27:10] ____________________________________________________________________________________________________
[30.05.2018 00:27:10] batch_normalization_65 (BatchNor (None, 12, 12, 192)   576         conv2d_65[
[30.05.2018 00:27:10] ____________________________________________________________________________________________________
[30.05.2018 00:27:10] activation_65 (Activation)       (None, 12, 12, 192)   0           batch_norm
[30.05.2018 00:27:10] ____________________________________________________________________________________________________
[30.05.2018 00:27:10] conv2d_66 (Conv2D)               (None, 12, 12, 192)   258048      activation
[30.05.2018 00:27:10] ____________________________________________________________________________________________________
[30.05.2018 00:27:10] batch_normalization_66 (BatchNor (None, 12, 12, 192)   576         conv2d_66[
[30.05.2018 00:27:10] ____________________________________________________________________________________________________
[30.05.2018 00:27:10] activation_66 (Activation)       (None, 12, 12, 192)   0           batch_norm
[30.05.2018 00:27:10] ____________________________________________________________________________________________________
[30.05.2018 00:27:10] conv2d_62 (Conv2D)               (None, 12, 12, 192)   147456      mixed6[0][
[30.05.2018 00:27:10] ____________________________________________________________________________________________________
[30.05.2018 00:27:10] conv2d_67 (Conv2D)               (None, 12, 12, 192)   258048      activation
[30.05.2018 00:27:10] ____________________________________________________________________________________________________
[30.05.2018 00:27:10] batch_normalization_62 (BatchNor (None, 12, 12, 192)   576         conv2d_62[
[30.05.2018 00:27:10] ____________________________________________________________________________________________________
[30.05.2018 00:27:10] batch_normalization_67 (BatchNor (None, 12, 12, 192)   576         conv2d_67[
[30.05.2018 00:27:10] ____________________________________________________________________________________________________
[30.05.2018 00:27:10] activation_62 (Activation)       (None, 12, 12, 192)   0           batch_norm
[30.05.2018 00:27:10] ____________________________________________________________________________________________________
[30.05.2018 00:27:10] activation_67 (Activation)       (None, 12, 12, 192)   0           batch_norm
[30.05.2018 00:27:10] ____________________________________________________________________________________________________
[30.05.2018 00:27:10] conv2d_63 (Conv2D)               (None, 12, 12, 192)   258048      activation
[30.05.2018 00:27:10] ____________________________________________________________________________________________________
[30.05.2018 00:27:10] conv2d_68 (Conv2D)               (None, 12, 12, 192)   258048      activation
[30.05.2018 00:27:10] ____________________________________________________________________________________________________
[30.05.2018 00:27:10] batch_normalization_63 (BatchNor (None, 12, 12, 192)   576         conv2d_63[
[30.05.2018 00:27:10] ____________________________________________________________________________________________________
[30.05.2018 00:27:10] batch_normalization_68 (BatchNor (None, 12, 12, 192)   576         conv2d_68[
[30.05.2018 00:27:10] ____________________________________________________________________________________________________
[30.05.2018 00:27:10] activation_63 (Activation)       (None, 12, 12, 192)   0           batch_norm
[30.05.2018 00:27:10] ____________________________________________________________________________________________________
[30.05.2018 00:27:10] activation_68 (Activation)       (None, 12, 12, 192)   0           batch_norm
[30.05.2018 00:27:10] ____________________________________________________________________________________________________
[30.05.2018 00:27:10] average_pooling2d_7 (AveragePool (None, 12, 12, 768)   0           mixed6[0][
[30.05.2018 00:27:10] ____________________________________________________________________________________________________
[30.05.2018 00:27:10] conv2d_61 (Conv2D)               (None, 12, 12, 192)   147456      mixed6[0][
[30.05.2018 00:27:10] ____________________________________________________________________________________________________
[30.05.2018 00:27:10] conv2d_64 (Conv2D)               (None, 12, 12, 192)   258048      activation
[30.05.2018 00:27:10] ____________________________________________________________________________________________________
[30.05.2018 00:27:10] conv2d_69 (Conv2D)               (None, 12, 12, 192)   258048      activation
[30.05.2018 00:27:10] ____________________________________________________________________________________________________
[30.05.2018 00:27:10] conv2d_70 (Conv2D)               (None, 12, 12, 192)   147456      average_po
[30.05.2018 00:27:10] ____________________________________________________________________________________________________
[30.05.2018 00:27:10] batch_normalization_61 (BatchNor (None, 12, 12, 192)   576         conv2d_61[
[30.05.2018 00:27:10] ____________________________________________________________________________________________________
[30.05.2018 00:27:10] batch_normalization_64 (BatchNor (None, 12, 12, 192)   576         conv2d_64[
[30.05.2018 00:27:10] ____________________________________________________________________________________________________
[30.05.2018 00:27:10] batch_normalization_69 (BatchNor (None, 12, 12, 192)   576         conv2d_69[
[30.05.2018 00:27:10] ____________________________________________________________________________________________________
[30.05.2018 00:27:10] batch_normalization_70 (BatchNor (None, 12, 12, 192)   576         conv2d_70[
[30.05.2018 00:27:10] ____________________________________________________________________________________________________
[30.05.2018 00:27:10] activation_61 (Activation)       (None, 12, 12, 192)   0           batch_norm
[30.05.2018 00:27:10] ____________________________________________________________________________________________________
[30.05.2018 00:27:10] activation_64 (Activation)       (None, 12, 12, 192)   0           batch_norm
[30.05.2018 00:27:10] ____________________________________________________________________________________________________
[30.05.2018 00:27:10] activation_69 (Activation)       (None, 12, 12, 192)   0           batch_norm
[30.05.2018 00:27:10] ____________________________________________________________________________________________________
[30.05.2018 00:27:10] activation_70 (Activation)       (None, 12, 12, 192)   0           batch_norm
[30.05.2018 00:27:10] ____________________________________________________________________________________________________
[30.05.2018 00:27:10] mixed7 (Concatenate)             (None, 12, 12, 768)   0           activation
[30.05.2018 00:27:10]                                                                    activation
[30.05.2018 00:27:10]                                                                    activation
[30.05.2018 00:27:10]                                                                    activation
[30.05.2018 00:27:10] ____________________________________________________________________________________________________
[30.05.2018 00:27:10] conv2d_73 (Conv2D)               (None, 12, 12, 192)   147456      mixed7[0][
[30.05.2018 00:27:10] ____________________________________________________________________________________________________
[30.05.2018 00:27:10] batch_normalization_73 (BatchNor (None, 12, 12, 192)   576         conv2d_73[
[30.05.2018 00:27:10] ____________________________________________________________________________________________________
[30.05.2018 00:27:10] activation_73 (Activation)       (None, 12, 12, 192)   0           batch_norm
[30.05.2018 00:27:10] ____________________________________________________________________________________________________
[30.05.2018 00:27:10] conv2d_74 (Conv2D)               (None, 12, 12, 192)   258048      activation
[30.05.2018 00:27:10] ____________________________________________________________________________________________________
[30.05.2018 00:27:10] batch_normalization_74 (BatchNor (None, 12, 12, 192)   576         conv2d_74[
[30.05.2018 00:27:10] ____________________________________________________________________________________________________
[30.05.2018 00:27:10] activation_74 (Activation)       (None, 12, 12, 192)   0           batch_norm
[30.05.2018 00:27:10] ____________________________________________________________________________________________________
[30.05.2018 00:27:10] conv2d_71 (Conv2D)               (None, 12, 12, 192)   147456      mixed7[0][
[30.05.2018 00:27:10] ____________________________________________________________________________________________________
[30.05.2018 00:27:10] conv2d_75 (Conv2D)               (None, 12, 12, 192)   258048      activation
[30.05.2018 00:27:10] ____________________________________________________________________________________________________
[30.05.2018 00:27:10] batch_normalization_71 (BatchNor (None, 12, 12, 192)   576         conv2d_71[
[30.05.2018 00:27:10] ____________________________________________________________________________________________________
[30.05.2018 00:27:10] batch_normalization_75 (BatchNor (None, 12, 12, 192)   576         conv2d_75[
[30.05.2018 00:27:10] ____________________________________________________________________________________________________
[30.05.2018 00:27:10] activation_71 (Activation)       (None, 12, 12, 192)   0           batch_norm
[30.05.2018 00:27:10] ____________________________________________________________________________________________________
[30.05.2018 00:27:10] activation_75 (Activation)       (None, 12, 12, 192)   0           batch_norm
[30.05.2018 00:27:10] ____________________________________________________________________________________________________
[30.05.2018 00:27:10] conv2d_72 (Conv2D)               (None, 5, 5, 320)     552960      activation
[30.05.2018 00:27:10] ____________________________________________________________________________________________________
[30.05.2018 00:27:10] conv2d_76 (Conv2D)               (None, 5, 5, 192)     331776      activation
[30.05.2018 00:27:10] ____________________________________________________________________________________________________
[30.05.2018 00:27:10] batch_normalization_72 (BatchNor (None, 5, 5, 320)     960         conv2d_72[
[30.05.2018 00:27:10] ____________________________________________________________________________________________________
[30.05.2018 00:27:10] batch_normalization_76 (BatchNor (None, 5, 5, 192)     576         conv2d_76[
[30.05.2018 00:27:10] ____________________________________________________________________________________________________
[30.05.2018 00:27:10] activation_72 (Activation)       (None, 5, 5, 320)     0           batch_norm
[30.05.2018 00:27:10] ____________________________________________________________________________________________________
[30.05.2018 00:27:10] activation_76 (Activation)       (None, 5, 5, 192)     0           batch_norm
[30.05.2018 00:27:10] ____________________________________________________________________________________________________
[30.05.2018 00:27:10] max_pooling2d_4 (MaxPooling2D)   (None, 5, 5, 768)     0           mixed7[0][
[30.05.2018 00:27:10] ____________________________________________________________________________________________________
[30.05.2018 00:27:10] mixed8 (Concatenate)             (None, 5, 5, 1280)    0           activation
[30.05.2018 00:27:10]                                                                    activation
[30.05.2018 00:27:10]                                                                    max_poolin
[30.05.2018 00:27:10] ____________________________________________________________________________________________________
[30.05.2018 00:27:10] conv2d_81 (Conv2D)               (None, 5, 5, 448)     573440      mixed8[0][
[30.05.2018 00:27:10] ____________________________________________________________________________________________________
[30.05.2018 00:27:10] batch_normalization_81 (BatchNor (None, 5, 5, 448)     1344        conv2d_81[
[30.05.2018 00:27:10] ____________________________________________________________________________________________________
[30.05.2018 00:27:10] activation_81 (Activation)       (None, 5, 5, 448)     0           batch_norm
[30.05.2018 00:27:10] ____________________________________________________________________________________________________
[30.05.2018 00:27:10] conv2d_78 (Conv2D)               (None, 5, 5, 384)     491520      mixed8[0][
[30.05.2018 00:27:10] ____________________________________________________________________________________________________
[30.05.2018 00:27:10] conv2d_82 (Conv2D)               (None, 5, 5, 384)     1548288     activation
[30.05.2018 00:27:10] ____________________________________________________________________________________________________
[30.05.2018 00:27:10] batch_normalization_78 (BatchNor (None, 5, 5, 384)     1152        conv2d_78[
[30.05.2018 00:27:10] ____________________________________________________________________________________________________
[30.05.2018 00:27:10] batch_normalization_82 (BatchNor (None, 5, 5, 384)     1152        conv2d_82[
[30.05.2018 00:27:10] ____________________________________________________________________________________________________
[30.05.2018 00:27:10] activation_78 (Activation)       (None, 5, 5, 384)     0           batch_norm
[30.05.2018 00:27:10] ____________________________________________________________________________________________________
[30.05.2018 00:27:10] activation_82 (Activation)       (None, 5, 5, 384)     0           batch_norm
[30.05.2018 00:27:10] ____________________________________________________________________________________________________
[30.05.2018 00:27:10] conv2d_79 (Conv2D)               (None, 5, 5, 384)     442368      activation
[30.05.2018 00:27:10] ____________________________________________________________________________________________________
[30.05.2018 00:27:10] conv2d_80 (Conv2D)               (None, 5, 5, 384)     442368      activation
[30.05.2018 00:27:10] ____________________________________________________________________________________________________
[30.05.2018 00:27:10] conv2d_83 (Conv2D)               (None, 5, 5, 384)     442368      activation
[30.05.2018 00:27:10] ____________________________________________________________________________________________________
[30.05.2018 00:27:10] conv2d_84 (Conv2D)               (None, 5, 5, 384)     442368      activation
[30.05.2018 00:27:10] ____________________________________________________________________________________________________
[30.05.2018 00:27:10] average_pooling2d_8 (AveragePool (None, 5, 5, 1280)    0           mixed8[0][
[30.05.2018 00:27:10] ____________________________________________________________________________________________________
[30.05.2018 00:27:10] conv2d_77 (Conv2D)               (None, 5, 5, 320)     409600      mixed8[0][
[30.05.2018 00:27:10] ____________________________________________________________________________________________________
[30.05.2018 00:27:10] batch_normalization_79 (BatchNor (None, 5, 5, 384)     1152        conv2d_79[
[30.05.2018 00:27:10] ____________________________________________________________________________________________________
[30.05.2018 00:27:10] batch_normalization_80 (BatchNor (None, 5, 5, 384)     1152        conv2d_80[
[30.05.2018 00:27:10] ____________________________________________________________________________________________________
[30.05.2018 00:27:10] batch_normalization_83 (BatchNor (None, 5, 5, 384)     1152        conv2d_83[
[30.05.2018 00:27:10] ____________________________________________________________________________________________________
[30.05.2018 00:27:10] batch_normalization_84 (BatchNor (None, 5, 5, 384)     1152        conv2d_84[
[30.05.2018 00:27:10] ____________________________________________________________________________________________________
[30.05.2018 00:27:10] conv2d_85 (Conv2D)               (None, 5, 5, 192)     245760      average_po
[30.05.2018 00:27:10] ____________________________________________________________________________________________________
[30.05.2018 00:27:10] batch_normalization_77 (BatchNor (None, 5, 5, 320)     960         conv2d_77[
[30.05.2018 00:27:10] ____________________________________________________________________________________________________
[30.05.2018 00:27:10] activation_79 (Activation)       (None, 5, 5, 384)     0           batch_norm
[30.05.2018 00:27:10] ____________________________________________________________________________________________________
[30.05.2018 00:27:10] activation_80 (Activation)       (None, 5, 5, 384)     0           batch_norm
[30.05.2018 00:27:10] ____________________________________________________________________________________________________
[30.05.2018 00:27:10] activation_83 (Activation)       (None, 5, 5, 384)     0           batch_norm
[30.05.2018 00:27:10] ____________________________________________________________________________________________________
[30.05.2018 00:27:10] activation_84 (Activation)       (None, 5, 5, 384)     0           batch_norm
[30.05.2018 00:27:10] ____________________________________________________________________________________________________
[30.05.2018 00:27:10] batch_normalization_85 (BatchNor (None, 5, 5, 192)     576         conv2d_85[
[30.05.2018 00:27:10] ____________________________________________________________________________________________________
[30.05.2018 00:27:10] activation_77 (Activation)       (None, 5, 5, 320)     0           batch_norm
[30.05.2018 00:27:10] ____________________________________________________________________________________________________
[30.05.2018 00:27:10] mixed9_0 (Concatenate)           (None, 5, 5, 768)     0           activation
[30.05.2018 00:27:10]                                                                    activation
[30.05.2018 00:27:10] ____________________________________________________________________________________________________
[30.05.2018 00:27:10] concatenate_1 (Concatenate)      (None, 5, 5, 768)     0           activation
[30.05.2018 00:27:10]                                                                    activation
[30.05.2018 00:27:10] ____________________________________________________________________________________________________
[30.05.2018 00:27:10] activation_85 (Activation)       (None, 5, 5, 192)     0           batch_norm
[30.05.2018 00:27:10] ____________________________________________________________________________________________________
[30.05.2018 00:27:10] mixed9 (Concatenate)             (None, 5, 5, 2048)    0           activation
[30.05.2018 00:27:10]                                                                    mixed9_0[0
[30.05.2018 00:27:10]                                                                    concatenat
[30.05.2018 00:27:10]                                                                    activation
[30.05.2018 00:27:10] ____________________________________________________________________________________________________
[30.05.2018 00:27:10] conv2d_90 (Conv2D)               (None, 5, 5, 448)     917504      mixed9[0][
[30.05.2018 00:27:10] ____________________________________________________________________________________________________
[30.05.2018 00:27:10] batch_normalization_90 (BatchNor (None, 5, 5, 448)     1344        conv2d_90[
[30.05.2018 00:27:10] ____________________________________________________________________________________________________
[30.05.2018 00:27:10] activation_90 (Activation)       (None, 5, 5, 448)     0           batch_norm
[30.05.2018 00:27:10] ____________________________________________________________________________________________________
[30.05.2018 00:27:10] conv2d_87 (Conv2D)               (None, 5, 5, 384)     786432      mixed9[0][
[30.05.2018 00:27:10] ____________________________________________________________________________________________________
[30.05.2018 00:27:10] conv2d_91 (Conv2D)               (None, 5, 5, 384)     1548288     activation
[30.05.2018 00:27:10] ____________________________________________________________________________________________________
[30.05.2018 00:27:10] batch_normalization_87 (BatchNor (None, 5, 5, 384)     1152        conv2d_87[
[30.05.2018 00:27:10] ____________________________________________________________________________________________________
[30.05.2018 00:27:10] batch_normalization_91 (BatchNor (None, 5, 5, 384)     1152        conv2d_91[
[30.05.2018 00:27:10] ____________________________________________________________________________________________________
[30.05.2018 00:27:10] activation_87 (Activation)       (None, 5, 5, 384)     0           batch_norm
[30.05.2018 00:27:10] ____________________________________________________________________________________________________
[30.05.2018 00:27:10] activation_91 (Activation)       (None, 5, 5, 384)     0           batch_norm
[30.05.2018 00:27:10] ____________________________________________________________________________________________________
[30.05.2018 00:27:10] conv2d_88 (Conv2D)               (None, 5, 5, 384)     442368      activation
[30.05.2018 00:27:10] ____________________________________________________________________________________________________
[30.05.2018 00:27:10] conv2d_89 (Conv2D)               (None, 5, 5, 384)     442368      activation
[30.05.2018 00:27:10] ____________________________________________________________________________________________________
[30.05.2018 00:27:10] conv2d_92 (Conv2D)               (None, 5, 5, 384)     442368      activation
[30.05.2018 00:27:10] ____________________________________________________________________________________________________
[30.05.2018 00:27:10] conv2d_93 (Conv2D)               (None, 5, 5, 384)     442368      activation
[30.05.2018 00:27:10] ____________________________________________________________________________________________________
[30.05.2018 00:27:10] average_pooling2d_9 (AveragePool (None, 5, 5, 2048)    0           mixed9[0][
[30.05.2018 00:27:10] ____________________________________________________________________________________________________
[30.05.2018 00:27:10] conv2d_86 (Conv2D)               (None, 5, 5, 320)     655360      mixed9[0][
[30.05.2018 00:27:10] ____________________________________________________________________________________________________
[30.05.2018 00:27:10] batch_normalization_88 (BatchNor (None, 5, 5, 384)     1152        conv2d_88[
[30.05.2018 00:27:10] ____________________________________________________________________________________________________
[30.05.2018 00:27:10] batch_normalization_89 (BatchNor (None, 5, 5, 384)     1152        conv2d_89[
[30.05.2018 00:27:10] ____________________________________________________________________________________________________
[30.05.2018 00:27:10] batch_normalization_92 (BatchNor (None, 5, 5, 384)     1152        conv2d_92[
[30.05.2018 00:27:10] ____________________________________________________________________________________________________
[30.05.2018 00:27:10] batch_normalization_93 (BatchNor (None, 5, 5, 384)     1152        conv2d_93[
[30.05.2018 00:27:10] ____________________________________________________________________________________________________
[30.05.2018 00:27:10] conv2d_94 (Conv2D)               (None, 5, 5, 192)     393216      average_po
[30.05.2018 00:27:10] ____________________________________________________________________________________________________
[30.05.2018 00:27:10] batch_normalization_86 (BatchNor (None, 5, 5, 320)     960         conv2d_86[
[30.05.2018 00:27:10] ____________________________________________________________________________________________________
[30.05.2018 00:27:10] activation_88 (Activation)       (None, 5, 5, 384)     0           batch_norm
[30.05.2018 00:27:10] ____________________________________________________________________________________________________
[30.05.2018 00:27:10] activation_89 (Activation)       (None, 5, 5, 384)     0           batch_norm
[30.05.2018 00:27:10] ____________________________________________________________________________________________________
[30.05.2018 00:27:10] activation_92 (Activation)       (None, 5, 5, 384)     0           batch_norm
[30.05.2018 00:27:10] ____________________________________________________________________________________________________
[30.05.2018 00:27:10] activation_93 (Activation)       (None, 5, 5, 384)     0           batch_norm
[30.05.2018 00:27:10] ____________________________________________________________________________________________________
[30.05.2018 00:27:10] batch_normalization_94 (BatchNor (None, 5, 5, 192)     576         conv2d_94[
[30.05.2018 00:27:10] ____________________________________________________________________________________________________
[30.05.2018 00:27:10] activation_86 (Activation)       (None, 5, 5, 320)     0           batch_norm
[30.05.2018 00:27:10] ____________________________________________________________________________________________________
[30.05.2018 00:27:10] mixed9_1 (Concatenate)           (None, 5, 5, 768)     0           activation
[30.05.2018 00:27:10]                                                                    activation
[30.05.2018 00:27:10] ____________________________________________________________________________________________________
[30.05.2018 00:27:10] concatenate_2 (Concatenate)      (None, 5, 5, 768)     0           activation
[30.05.2018 00:27:10]                                                                    activation
[30.05.2018 00:27:10] ____________________________________________________________________________________________________
[30.05.2018 00:27:10] activation_94 (Activation)       (None, 5, 5, 192)     0           batch_norm
[30.05.2018 00:27:10] ____________________________________________________________________________________________________
[30.05.2018 00:27:10] mixed10 (Concatenate)            (None, 5, 5, 2048)    0           activation
[30.05.2018 00:27:10]                                                                    mixed9_1[0
[30.05.2018 00:27:10]                                                                    concatenat
[30.05.2018 00:27:10]                                                                    activation
[30.05.2018 00:27:10] ____________________________________________________________________________________________________
[30.05.2018 00:27:10] flatten_1 (Flatten)              (None, 51200)         0           mixed10[0]
[30.05.2018 00:27:10] ____________________________________________________________________________________________________
[30.05.2018 00:27:10] final_output (Dense)             (None, 10)            512010      flatten_1[
[30.05.2018 00:27:10] ====================================================================================================
[30.05.2018 00:27:10] Total params: 22,314,794
[30.05.2018 00:27:10] Trainable params: 512,010
[30.05.2018 00:27:10] Non-trainable params: 21,802,784
[30.05.2018 00:27:10] Total floating point operations: 2,836,385,120
[30.05.2018 00:27:10] ____________________________________________________________________________________________________
…
