[31.05.2018 22:48:15] Pre-training cifar10on CIFAR10_all_intermediate__mixedLayers_Elastic_InceptionV3...
[31.05.2018 22:48:29] Model summary:
[31.05.2018 22:48:29] __________________________________________________________________________________________________
[31.05.2018 22:48:29] Layer (type)                    Output Shape         Param #     Ops #     Connected to           
[31.05.2018 22:48:29] ==================================================================================================
[31.05.2018 22:48:29] input_1 (InputLayer)            (None, 224, 224, 3)  0           None                             
[31.05.2018 22:48:29] __________________________________________________________________________________________________
[31.05.2018 22:48:29] conv2d_1 (Conv2D)               (None, 111, 111, 32) 864         10645344  input_1[0][0]          
[31.05.2018 22:48:29] __________________________________________________________________________________________________
[31.05.2018 22:48:29] batch_normalization_1 (BatchNor (None, 111, 111, 32) 96          None      conv2d_1[0][0]         
[31.05.2018 22:48:29] __________________________________________________________________________________________________
[31.05.2018 22:48:29] activation_1 (Activation)       (None, 111, 111, 32) 0           None      batch_normalization_1[0
[31.05.2018 22:48:29] __________________________________________________________________________________________________
[31.05.2018 22:48:29] conv2d_2 (Conv2D)               (None, 109, 109, 32) 9216        109495296 activation_1[0][0]     
[31.05.2018 22:48:29] __________________________________________________________________________________________________
[31.05.2018 22:48:29] batch_normalization_2 (BatchNor (None, 109, 109, 32) 96          None      conv2d_2[0][0]         
[31.05.2018 22:48:29] __________________________________________________________________________________________________
[31.05.2018 22:48:29] activation_2 (Activation)       (None, 109, 109, 32) 0           None      batch_normalization_2[0
[31.05.2018 22:48:29] __________________________________________________________________________________________________
[31.05.2018 22:48:29] conv2d_3 (Conv2D)               (None, 109, 109, 64) 18432       218990592 activation_2[0][0]     
[31.05.2018 22:48:29] __________________________________________________________________________________________________
[31.05.2018 22:48:29] batch_normalization_3 (BatchNor (None, 109, 109, 64) 192         None      conv2d_3[0][0]         
[31.05.2018 22:48:29] __________________________________________________________________________________________________
[31.05.2018 22:48:29] activation_3 (Activation)       (None, 109, 109, 64) 0           None      batch_normalization_3[0
[31.05.2018 22:48:29] __________________________________________________________________________________________________
[31.05.2018 22:48:29] max_pooling2d_1 (MaxPooling2D)  (None, 54, 54, 64)   0           None      activation_3[0][0]     
[31.05.2018 22:48:29] __________________________________________________________________________________________________
[31.05.2018 22:48:29] conv2d_4 (Conv2D)               (None, 54, 54, 80)   5120        14929920  max_pooling2d_1[0][0]  
[31.05.2018 22:48:29] __________________________________________________________________________________________________
[31.05.2018 22:48:29] batch_normalization_4 (BatchNor (None, 54, 54, 80)   240         None      conv2d_4[0][0]         
[31.05.2018 22:48:29] __________________________________________________________________________________________________
[31.05.2018 22:48:29] activation_4 (Activation)       (None, 54, 54, 80)   0           None      batch_normalization_4[0
[31.05.2018 22:48:29] __________________________________________________________________________________________________
[31.05.2018 22:48:29] conv2d_5 (Conv2D)               (None, 52, 52, 192)  138240      373800960 activation_4[0][0]     
[31.05.2018 22:48:29] __________________________________________________________________________________________________
[31.05.2018 22:48:29] batch_normalization_5 (BatchNor (None, 52, 52, 192)  576         None      conv2d_5[0][0]         
[31.05.2018 22:48:29] __________________________________________________________________________________________________
[31.05.2018 22:48:29] activation_5 (Activation)       (None, 52, 52, 192)  0           None      batch_normalization_5[0
[31.05.2018 22:48:29] __________________________________________________________________________________________________
[31.05.2018 22:48:29] max_pooling2d_2 (MaxPooling2D)  (None, 25, 25, 192)  0           None      activation_5[0][0]     
[31.05.2018 22:48:29] __________________________________________________________________________________________________
[31.05.2018 22:48:29] conv2d_9 (Conv2D)               (None, 25, 25, 64)   12288       7680000   max_pooling2d_2[0][0]  
[31.05.2018 22:48:29] __________________________________________________________________________________________________
[31.05.2018 22:48:29] batch_normalization_9 (BatchNor (None, 25, 25, 64)   192         None      conv2d_9[0][0]         
[31.05.2018 22:48:29] __________________________________________________________________________________________________
[31.05.2018 22:48:29] activation_9 (Activation)       (None, 25, 25, 64)   0           None      batch_normalization_9[0
[31.05.2018 22:48:29] __________________________________________________________________________________________________
[31.05.2018 22:48:29] conv2d_7 (Conv2D)               (None, 25, 25, 48)   9216        5760000   max_pooling2d_2[0][0]  
[31.05.2018 22:48:29] __________________________________________________________________________________________________
[31.05.2018 22:48:29] conv2d_10 (Conv2D)              (None, 25, 25, 96)   55296       34560000  activation_9[0][0]     
[31.05.2018 22:48:29] __________________________________________________________________________________________________
[31.05.2018 22:48:29] batch_normalization_7 (BatchNor (None, 25, 25, 48)   144         None      conv2d_7[0][0]         
[31.05.2018 22:48:29] __________________________________________________________________________________________________
[31.05.2018 22:48:29] batch_normalization_10 (BatchNo (None, 25, 25, 96)   288         None      conv2d_10[0][0]        
[31.05.2018 22:48:29] __________________________________________________________________________________________________
[31.05.2018 22:48:29] activation_7 (Activation)       (None, 25, 25, 48)   0           None      batch_normalization_7[0
[31.05.2018 22:48:29] __________________________________________________________________________________________________
[31.05.2018 22:48:29] activation_10 (Activation)      (None, 25, 25, 96)   0           None      batch_normalization_10[
[31.05.2018 22:48:29] __________________________________________________________________________________________________
[31.05.2018 22:48:29] average_pooling2d_1 (AveragePoo (None, 25, 25, 192)  0           None      max_pooling2d_2[0][0]  
[31.05.2018 22:48:29] __________________________________________________________________________________________________
[31.05.2018 22:48:29] conv2d_6 (Conv2D)               (None, 25, 25, 64)   12288       7680000   max_pooling2d_2[0][0]  
[31.05.2018 22:48:29] __________________________________________________________________________________________________
[31.05.2018 22:48:29] conv2d_8 (Conv2D)               (None, 25, 25, 64)   76800       48000000  activation_7[0][0]     
[31.05.2018 22:48:29] __________________________________________________________________________________________________
[31.05.2018 22:48:29] conv2d_11 (Conv2D)              (None, 25, 25, 96)   82944       51840000  activation_10[0][0]    
[31.05.2018 22:48:29] __________________________________________________________________________________________________
[31.05.2018 22:48:29] conv2d_12 (Conv2D)              (None, 25, 25, 32)   6144        3840000   average_pooling2d_1[0][
[31.05.2018 22:48:29] __________________________________________________________________________________________________
[31.05.2018 22:48:29] batch_normalization_6 (BatchNor (None, 25, 25, 64)   192         None      conv2d_6[0][0]         
[31.05.2018 22:48:29] __________________________________________________________________________________________________
[31.05.2018 22:48:29] batch_normalization_8 (BatchNor (None, 25, 25, 64)   192         None      conv2d_8[0][0]         
[31.05.2018 22:48:29] __________________________________________________________________________________________________
[31.05.2018 22:48:29] batch_normalization_11 (BatchNo (None, 25, 25, 96)   288         None      conv2d_11[0][0]        
[31.05.2018 22:48:29] __________________________________________________________________________________________________
[31.05.2018 22:48:29] batch_normalization_12 (BatchNo (None, 25, 25, 32)   96          None      conv2d_12[0][0]        
[31.05.2018 22:48:29] __________________________________________________________________________________________________
[31.05.2018 22:48:29] activation_6 (Activation)       (None, 25, 25, 64)   0           None      batch_normalization_6[0
[31.05.2018 22:48:29] __________________________________________________________________________________________________
[31.05.2018 22:48:29] activation_8 (Activation)       (None, 25, 25, 64)   0           None      batch_normalization_8[0
[31.05.2018 22:48:29] __________________________________________________________________________________________________
[31.05.2018 22:48:29] activation_11 (Activation)      (None, 25, 25, 96)   0           None      batch_normalization_11[
[31.05.2018 22:48:29] __________________________________________________________________________________________________
[31.05.2018 22:48:29] activation_12 (Activation)      (None, 25, 25, 32)   0           None      batch_normalization_12[
[31.05.2018 22:48:29] __________________________________________________________________________________________________
[31.05.2018 22:48:29] mixed0 (Concatenate)            (None, 25, 25, 256)  0           None      activation_6[0][0]     
[31.05.2018 22:48:29]                                                                  activation
[31.05.2018 22:48:29]                                                                  activation
[31.05.2018 22:48:29]                                                                  activation
[31.05.2018 22:48:29] __________________________________________________________________________________________________
[31.05.2018 22:48:29] conv2d_16 (Conv2D)              (None, 25, 25, 64)   16384       10240000  mixed0[0][0]           
[31.05.2018 22:48:29] __________________________________________________________________________________________________
[31.05.2018 22:48:29] batch_normalization_16 (BatchNo (None, 25, 25, 64)   192         None      conv2d_16[0][0]        
[31.05.2018 22:48:29] __________________________________________________________________________________________________
[31.05.2018 22:48:29] activation_16 (Activation)      (None, 25, 25, 64)   0           None      batch_normalization_16[
[31.05.2018 22:48:29] __________________________________________________________________________________________________
[31.05.2018 22:48:29] conv2d_14 (Conv2D)              (None, 25, 25, 48)   12288       7680000   mixed0[0][0]           
[31.05.2018 22:48:29] __________________________________________________________________________________________________
[31.05.2018 22:48:29] conv2d_17 (Conv2D)              (None, 25, 25, 96)   55296       34560000  activation_16[0][0]    
[31.05.2018 22:48:29] __________________________________________________________________________________________________
[31.05.2018 22:48:29] batch_normalization_14 (BatchNo (None, 25, 25, 48)   144         None      conv2d_14[0][0]        
[31.05.2018 22:48:29] __________________________________________________________________________________________________
[31.05.2018 22:48:29] batch_normalization_17 (BatchNo (None, 25, 25, 96)   288         None      conv2d_17[0][0]        
[31.05.2018 22:48:29] __________________________________________________________________________________________________
[31.05.2018 22:48:29] activation_14 (Activation)      (None, 25, 25, 48)   0           None      batch_normalization_14[
[31.05.2018 22:48:29] __________________________________________________________________________________________________
[31.05.2018 22:48:29] activation_17 (Activation)      (None, 25, 25, 96)   0           None      batch_normalization_17[
[31.05.2018 22:48:29] __________________________________________________________________________________________________
[31.05.2018 22:48:29] average_pooling2d_2 (AveragePoo (None, 25, 25, 256)  0           None      mixed0[0][0]           
[31.05.2018 22:48:29] __________________________________________________________________________________________________
[31.05.2018 22:48:29] conv2d_13 (Conv2D)              (None, 25, 25, 64)   16384       10240000  mixed0[0][0]           
[31.05.2018 22:48:29] __________________________________________________________________________________________________
[31.05.2018 22:48:29] conv2d_15 (Conv2D)              (None, 25, 25, 64)   76800       48000000  activation_14[0][0]    
[31.05.2018 22:48:29] __________________________________________________________________________________________________
[31.05.2018 22:48:29] conv2d_18 (Conv2D)              (None, 25, 25, 96)   82944       51840000  activation_17[0][0]    
[31.05.2018 22:48:29] __________________________________________________________________________________________________
[31.05.2018 22:48:29] conv2d_19 (Conv2D)              (None, 25, 25, 64)   16384       10240000  average_pooling2d_2[0][
[31.05.2018 22:48:29] __________________________________________________________________________________________________
[31.05.2018 22:48:29] batch_normalization_13 (BatchNo (None, 25, 25, 64)   192         None      conv2d_13[0][0]        
[31.05.2018 22:48:29] __________________________________________________________________________________________________
[31.05.2018 22:48:29] batch_normalization_15 (BatchNo (None, 25, 25, 64)   192         None      conv2d_15[0][0]        
[31.05.2018 22:48:29] __________________________________________________________________________________________________
[31.05.2018 22:48:29] batch_normalization_18 (BatchNo (None, 25, 25, 96)   288         None      conv2d_18[0][0]        
[31.05.2018 22:48:29] __________________________________________________________________________________________________
[31.05.2018 22:48:29] batch_normalization_19 (BatchNo (None, 25, 25, 64)   192         None      conv2d_19[0][0]        
[31.05.2018 22:48:29] __________________________________________________________________________________________________
[31.05.2018 22:48:29] activation_13 (Activation)      (None, 25, 25, 64)   0           None      batch_normalization_13[
[31.05.2018 22:48:29] __________________________________________________________________________________________________
[31.05.2018 22:48:29] activation_15 (Activation)      (None, 25, 25, 64)   0           None      batch_normalization_15[
[31.05.2018 22:48:29] __________________________________________________________________________________________________
[31.05.2018 22:48:29] activation_18 (Activation)      (None, 25, 25, 96)   0           None      batch_normalization_18[
[31.05.2018 22:48:29] __________________________________________________________________________________________________
[31.05.2018 22:48:29] activation_19 (Activation)      (None, 25, 25, 64)   0           None      batch_normalization_19[
[31.05.2018 22:48:29] __________________________________________________________________________________________________
[31.05.2018 22:48:29] mixed1 (Concatenate)            (None, 25, 25, 288)  0           None      activation_13[0][0]    
[31.05.2018 22:48:29]                                                                  activation
[31.05.2018 22:48:29]                                                                  activation
[31.05.2018 22:48:29]                                                                  activation
[31.05.2018 22:48:29] __________________________________________________________________________________________________
[31.05.2018 22:48:29] conv2d_23 (Conv2D)              (None, 25, 25, 64)   18432       11520000  mixed1[0][0]           
[31.05.2018 22:48:29] __________________________________________________________________________________________________
[31.05.2018 22:48:29] batch_normalization_23 (BatchNo (None, 25, 25, 64)   192         None      conv2d_23[0][0]        
[31.05.2018 22:48:29] __________________________________________________________________________________________________
[31.05.2018 22:48:29] activation_23 (Activation)      (None, 25, 25, 64)   0           None      batch_normalization_23[
[31.05.2018 22:48:29] __________________________________________________________________________________________________
[31.05.2018 22:48:29] conv2d_21 (Conv2D)              (None, 25, 25, 48)   13824       8640000   mixed1[0][0]           
[31.05.2018 22:48:29] __________________________________________________________________________________________________
[31.05.2018 22:48:29] conv2d_24 (Conv2D)              (None, 25, 25, 96)   55296       34560000  activation_23[0][0]    
[31.05.2018 22:48:29] __________________________________________________________________________________________________
[31.05.2018 22:48:29] batch_normalization_21 (BatchNo (None, 25, 25, 48)   144         None      conv2d_21[0][0]        
[31.05.2018 22:48:29] __________________________________________________________________________________________________
[31.05.2018 22:48:29] batch_normalization_24 (BatchNo (None, 25, 25, 96)   288         None      conv2d_24[0][0]        
[31.05.2018 22:48:29] __________________________________________________________________________________________________
[31.05.2018 22:48:29] activation_21 (Activation)      (None, 25, 25, 48)   0           None      batch_normalization_21[
[31.05.2018 22:48:29] __________________________________________________________________________________________________
[31.05.2018 22:48:29] activation_24 (Activation)      (None, 25, 25, 96)   0           None      batch_normalization_24[
[31.05.2018 22:48:29] __________________________________________________________________________________________________
[31.05.2018 22:48:29] average_pooling2d_3 (AveragePoo (None, 25, 25, 288)  0           None      mixed1[0][0]           
[31.05.2018 22:48:29] __________________________________________________________________________________________________
[31.05.2018 22:48:29] conv2d_20 (Conv2D)              (None, 25, 25, 64)   18432       11520000  mixed1[0][0]           
[31.05.2018 22:48:29] __________________________________________________________________________________________________
[31.05.2018 22:48:29] conv2d_22 (Conv2D)              (None, 25, 25, 64)   76800       48000000  activation_21[0][0]    
[31.05.2018 22:48:29] __________________________________________________________________________________________________
[31.05.2018 22:48:29] conv2d_25 (Conv2D)              (None, 25, 25, 96)   82944       51840000  activation_24[0][0]    
[31.05.2018 22:48:29] __________________________________________________________________________________________________
[31.05.2018 22:48:29] conv2d_26 (Conv2D)              (None, 25, 25, 64)   18432       11520000  average_pooling2d_3[0][
[31.05.2018 22:48:29] __________________________________________________________________________________________________
[31.05.2018 22:48:29] batch_normalization_20 (BatchNo (None, 25, 25, 64)   192         None      conv2d_20[0][0]        
[31.05.2018 22:48:29] __________________________________________________________________________________________________
[31.05.2018 22:48:29] batch_normalization_22 (BatchNo (None, 25, 25, 64)   192         None      conv2d_22[0][0]        
[31.05.2018 22:48:29] __________________________________________________________________________________________________
[31.05.2018 22:48:29] batch_normalization_25 (BatchNo (None, 25, 25, 96)   288         None      conv2d_25[0][0]        
[31.05.2018 22:48:29] __________________________________________________________________________________________________
[31.05.2018 22:48:29] batch_normalization_26 (BatchNo (None, 25, 25, 64)   192         None      conv2d_26[0][0]        
[31.05.2018 22:48:29] __________________________________________________________________________________________________
[31.05.2018 22:48:29] activation_20 (Activation)      (None, 25, 25, 64)   0           None      batch_normalization_20[
[31.05.2018 22:48:29] __________________________________________________________________________________________________
[31.05.2018 22:48:29] activation_22 (Activation)      (None, 25, 25, 64)   0           None      batch_normalization_22[
[31.05.2018 22:48:29] __________________________________________________________________________________________________
[31.05.2018 22:48:29] activation_25 (Activation)      (None, 25, 25, 96)   0           None      batch_normalization_25[
[31.05.2018 22:48:29] __________________________________________________________________________________________________
[31.05.2018 22:48:29] activation_26 (Activation)      (None, 25, 25, 64)   0           None      batch_normalization_26[
[31.05.2018 22:48:29] __________________________________________________________________________________________________
[31.05.2018 22:48:29] mixed2 (Concatenate)            (None, 25, 25, 288)  0           None      activation_20[0][0]    
[31.05.2018 22:48:29]                                                                  activation
[31.05.2018 22:48:29]                                                                  activation
[31.05.2018 22:48:29]                                                                  activation
[31.05.2018 22:48:29] __________________________________________________________________________________________________
[31.05.2018 22:48:29] conv2d_28 (Conv2D)              (None, 25, 25, 64)   18432       11520000  mixed2[0][0]           
[31.05.2018 22:48:29] __________________________________________________________________________________________________
[31.05.2018 22:48:29] batch_normalization_28 (BatchNo (None, 25, 25, 64)   192         None      conv2d_28[0][0]        
[31.05.2018 22:48:29] __________________________________________________________________________________________________
[31.05.2018 22:48:29] activation_28 (Activation)      (None, 25, 25, 64)   0           None      batch_normalization_28[
[31.05.2018 22:48:29] __________________________________________________________________________________________________
[31.05.2018 22:48:29] conv2d_29 (Conv2D)              (None, 25, 25, 96)   55296       34560000  activation_28[0][0]    
[31.05.2018 22:48:29] __________________________________________________________________________________________________
[31.05.2018 22:48:29] batch_normalization_29 (BatchNo (None, 25, 25, 96)   288         None      conv2d_29[0][0]        
[31.05.2018 22:48:29] __________________________________________________________________________________________________
[31.05.2018 22:48:29] activation_29 (Activation)      (None, 25, 25, 96)   0           None      batch_normalization_29[
[31.05.2018 22:48:29] __________________________________________________________________________________________________
[31.05.2018 22:48:29] conv2d_27 (Conv2D)              (None, 12, 12, 384)  995328      143327232 mixed2[0][0]           
[31.05.2018 22:48:29] __________________________________________________________________________________________________
[31.05.2018 22:48:29] conv2d_30 (Conv2D)              (None, 12, 12, 96)   82944       11943936  activation_29[0][0]    
[31.05.2018 22:48:29] __________________________________________________________________________________________________
[31.05.2018 22:48:29] batch_normalization_27 (BatchNo (None, 12, 12, 384)  1152        None      conv2d_27[0][0]        
[31.05.2018 22:48:29] __________________________________________________________________________________________________
[31.05.2018 22:48:29] batch_normalization_30 (BatchNo (None, 12, 12, 96)   288         None      conv2d_30[0][0]        
[31.05.2018 22:48:29] __________________________________________________________________________________________________
[31.05.2018 22:48:29] activation_27 (Activation)      (None, 12, 12, 384)  0           None      batch_normalization_27[
[31.05.2018 22:48:29] __________________________________________________________________________________________________
[31.05.2018 22:48:29] activation_30 (Activation)      (None, 12, 12, 96)   0           None      batch_normalization_30[
[31.05.2018 22:48:29] __________________________________________________________________________________________________
[31.05.2018 22:48:29] max_pooling2d_3 (MaxPooling2D)  (None, 12, 12, 288)  0           None      mixed2[0][0]           
[31.05.2018 22:48:29] __________________________________________________________________________________________________
[31.05.2018 22:48:29] mixed3 (Concatenate)            (None, 12, 12, 768)  0           None      activation_27[0][0]    
[31.05.2018 22:48:29]                                                                  activation
[31.05.2018 22:48:29]                                                                  max_poolin
[31.05.2018 22:48:29] __________________________________________________________________________________________________
[31.05.2018 22:48:29] conv2d_35 (Conv2D)              (None, 12, 12, 128)  98304       14155776  mixed3[0][0]           
[31.05.2018 22:48:29] __________________________________________________________________________________________________
[31.05.2018 22:48:29] batch_normalization_35 (BatchNo (None, 12, 12, 128)  384         None      conv2d_35[0][0]        
[31.05.2018 22:48:29] __________________________________________________________________________________________________
[31.05.2018 22:48:29] activation_35 (Activation)      (None, 12, 12, 128)  0           None      batch_normalization_35[
[31.05.2018 22:48:29] __________________________________________________________________________________________________
[31.05.2018 22:48:29] conv2d_36 (Conv2D)              (None, 12, 12, 128)  114688      16515072  activation_35[0][0]    
[31.05.2018 22:48:29] __________________________________________________________________________________________________
[31.05.2018 22:48:29] batch_normalization_36 (BatchNo (None, 12, 12, 128)  384         None      conv2d_36[0][0]        
[31.05.2018 22:48:29] __________________________________________________________________________________________________
[31.05.2018 22:48:29] activation_36 (Activation)      (None, 12, 12, 128)  0           None      batch_normalization_36[
[31.05.2018 22:48:29] __________________________________________________________________________________________________
[31.05.2018 22:48:29] conv2d_32 (Conv2D)              (None, 12, 12, 128)  98304       14155776  mixed3[0][0]           
[31.05.2018 22:48:29] __________________________________________________________________________________________________
[31.05.2018 22:48:29] conv2d_37 (Conv2D)              (None, 12, 12, 128)  114688      16515072  activation_36[0][0]    
[31.05.2018 22:48:29] __________________________________________________________________________________________________
[31.05.2018 22:48:29] batch_normalization_32 (BatchNo (None, 12, 12, 128)  384         None      conv2d_32[0][0]        
[31.05.2018 22:48:29] __________________________________________________________________________________________________
[31.05.2018 22:48:29] batch_normalization_37 (BatchNo (None, 12, 12, 128)  384         None      conv2d_37[0][0]        
[31.05.2018 22:48:29] __________________________________________________________________________________________________
[31.05.2018 22:48:29] activation_32 (Activation)      (None, 12, 12, 128)  0           None      batch_normalization_32[
[31.05.2018 22:48:29] __________________________________________________________________________________________________
[31.05.2018 22:48:29] activation_37 (Activation)      (None, 12, 12, 128)  0           None      batch_normalization_37[
[31.05.2018 22:48:29] __________________________________________________________________________________________________
[31.05.2018 22:48:29] conv2d_33 (Conv2D)              (None, 12, 12, 128)  114688      16515072  activation_32[0][0]    
[31.05.2018 22:48:29] __________________________________________________________________________________________________
[31.05.2018 22:48:29] conv2d_38 (Conv2D)              (None, 12, 12, 128)  114688      16515072  activation_37[0][0]    
[31.05.2018 22:48:29] __________________________________________________________________________________________________
[31.05.2018 22:48:29] batch_normalization_33 (BatchNo (None, 12, 12, 128)  384         None      conv2d_33[0][0]        
[31.05.2018 22:48:29] __________________________________________________________________________________________________
[31.05.2018 22:48:29] batch_normalization_38 (BatchNo (None, 12, 12, 128)  384         None      conv2d_38[0][0]        
[31.05.2018 22:48:29] __________________________________________________________________________________________________
[31.05.2018 22:48:29] activation_33 (Activation)      (None, 12, 12, 128)  0           None      batch_normalization_33[
[31.05.2018 22:48:29] __________________________________________________________________________________________________
[31.05.2018 22:48:29] activation_38 (Activation)      (None, 12, 12, 128)  0           None      batch_normalization_38[
[31.05.2018 22:48:29] __________________________________________________________________________________________________
[31.05.2018 22:48:29] average_pooling2d_4 (AveragePoo (None, 12, 12, 768)  0           None      mixed3[0][0]           
[31.05.2018 22:48:29] __________________________________________________________________________________________________
[31.05.2018 22:48:29] conv2d_31 (Conv2D)              (None, 12, 12, 192)  147456      21233664  mixed3[0][0]           
[31.05.2018 22:48:29] __________________________________________________________________________________________________
[31.05.2018 22:48:29] conv2d_34 (Conv2D)              (None, 12, 12, 192)  172032      24772608  activation_33[0][0]    
[31.05.2018 22:48:29] __________________________________________________________________________________________________
[31.05.2018 22:48:29] conv2d_39 (Conv2D)              (None, 12, 12, 192)  172032      24772608  activation_38[0][0]    
[31.05.2018 22:48:29] __________________________________________________________________________________________________
[31.05.2018 22:48:29] conv2d_40 (Conv2D)              (None, 12, 12, 192)  147456      21233664  average_pooling2d_4[0][
[31.05.2018 22:48:29] __________________________________________________________________________________________________
[31.05.2018 22:48:29] batch_normalization_31 (BatchNo (None, 12, 12, 192)  576         None      conv2d_31[0][0]        
[31.05.2018 22:48:29] __________________________________________________________________________________________________
[31.05.2018 22:48:29] batch_normalization_34 (BatchNo (None, 12, 12, 192)  576         None      conv2d_34[0][0]        
[31.05.2018 22:48:29] __________________________________________________________________________________________________
[31.05.2018 22:48:29] batch_normalization_39 (BatchNo (None, 12, 12, 192)  576         None      conv2d_39[0][0]        
[31.05.2018 22:48:29] __________________________________________________________________________________________________
[31.05.2018 22:48:29] batch_normalization_40 (BatchNo (None, 12, 12, 192)  576         None      conv2d_40[0][0]        
[31.05.2018 22:48:29] __________________________________________________________________________________________________
[31.05.2018 22:48:29] activation_31 (Activation)      (None, 12, 12, 192)  0           None      batch_normalization_31[
[31.05.2018 22:48:29] __________________________________________________________________________________________________
[31.05.2018 22:48:29] activation_34 (Activation)      (None, 12, 12, 192)  0           None      batch_normalization_34[
[31.05.2018 22:48:29] __________________________________________________________________________________________________
[31.05.2018 22:48:29] activation_39 (Activation)      (None, 12, 12, 192)  0           None      batch_normalization_39[
[31.05.2018 22:48:29] __________________________________________________________________________________________________
[31.05.2018 22:48:29] activation_40 (Activation)      (None, 12, 12, 192)  0           None      batch_normalization_40[
[31.05.2018 22:48:29] __________________________________________________________________________________________________
[31.05.2018 22:48:29] mixed4 (Concatenate)            (None, 12, 12, 768)  0           None      activation_31[0][0]    
[31.05.2018 22:48:29]                                                                  activation
[31.05.2018 22:48:29]                                                                  activation
[31.05.2018 22:48:29]                                                                  activation
[31.05.2018 22:48:29] __________________________________________________________________________________________________
[31.05.2018 22:48:29] conv2d_45 (Conv2D)              (None, 12, 12, 160)  122880      17694720  mixed4[0][0]           
[31.05.2018 22:48:29] __________________________________________________________________________________________________
[31.05.2018 22:48:29] batch_normalization_45 (BatchNo (None, 12, 12, 160)  480         None      conv2d_45[0][0]        
[31.05.2018 22:48:29] __________________________________________________________________________________________________
[31.05.2018 22:48:29] activation_45 (Activation)      (None, 12, 12, 160)  0           None      batch_normalization_45[
[31.05.2018 22:48:29] __________________________________________________________________________________________________
[31.05.2018 22:48:29] conv2d_46 (Conv2D)              (None, 12, 12, 160)  179200      25804800  activation_45[0][0]    
[31.05.2018 22:48:29] __________________________________________________________________________________________________
[31.05.2018 22:48:29] batch_normalization_46 (BatchNo (None, 12, 12, 160)  480         None      conv2d_46[0][0]        
[31.05.2018 22:48:29] __________________________________________________________________________________________________
[31.05.2018 22:48:29] activation_46 (Activation)      (None, 12, 12, 160)  0           None      batch_normalization_46[
[31.05.2018 22:48:29] __________________________________________________________________________________________________
[31.05.2018 22:48:29] conv2d_42 (Conv2D)              (None, 12, 12, 160)  122880      17694720  mixed4[0][0]           
[31.05.2018 22:48:29] __________________________________________________________________________________________________
[31.05.2018 22:48:29] conv2d_47 (Conv2D)              (None, 12, 12, 160)  179200      25804800  activation_46[0][0]    
[31.05.2018 22:48:29] __________________________________________________________________________________________________
[31.05.2018 22:48:29] batch_normalization_42 (BatchNo (None, 12, 12, 160)  480         None      conv2d_42[0][0]        
[31.05.2018 22:48:29] __________________________________________________________________________________________________
[31.05.2018 22:48:29] batch_normalization_47 (BatchNo (None, 12, 12, 160)  480         None      conv2d_47[0][0]        
[31.05.2018 22:48:29] __________________________________________________________________________________________________
[31.05.2018 22:48:29] activation_42 (Activation)      (None, 12, 12, 160)  0           None      batch_normalization_42[
[31.05.2018 22:48:29] __________________________________________________________________________________________________
[31.05.2018 22:48:29] activation_47 (Activation)      (None, 12, 12, 160)  0           None      batch_normalization_47[
[31.05.2018 22:48:29] __________________________________________________________________________________________________
[31.05.2018 22:48:29] conv2d_43 (Conv2D)              (None, 12, 12, 160)  179200      25804800  activation_42[0][0]    
[31.05.2018 22:48:29] __________________________________________________________________________________________________
[31.05.2018 22:48:29] conv2d_48 (Conv2D)              (None, 12, 12, 160)  179200      25804800  activation_47[0][0]    
[31.05.2018 22:48:29] __________________________________________________________________________________________________
[31.05.2018 22:48:29] batch_normalization_43 (BatchNo (None, 12, 12, 160)  480         None      conv2d_43[0][0]        
[31.05.2018 22:48:29] __________________________________________________________________________________________________
[31.05.2018 22:48:29] batch_normalization_48 (BatchNo (None, 12, 12, 160)  480         None      conv2d_48[0][0]        
[31.05.2018 22:48:29] __________________________________________________________________________________________________
[31.05.2018 22:48:29] activation_43 (Activation)      (None, 12, 12, 160)  0           None      batch_normalization_43[
[31.05.2018 22:48:29] __________________________________________________________________________________________________
[31.05.2018 22:48:29] activation_48 (Activation)      (None, 12, 12, 160)  0           None      batch_normalization_48[
[31.05.2018 22:48:29] __________________________________________________________________________________________________
[31.05.2018 22:48:29] average_pooling2d_5 (AveragePoo (None, 12, 12, 768)  0           None      mixed4[0][0]           
[31.05.2018 22:48:29] __________________________________________________________________________________________________
[31.05.2018 22:48:29] conv2d_41 (Conv2D)              (None, 12, 12, 192)  147456      21233664  mixed4[0][0]           
[31.05.2018 22:48:29] __________________________________________________________________________________________________
[31.05.2018 22:48:29] conv2d_44 (Conv2D)              (None, 12, 12, 192)  215040      30965760  activation_43[0][0]    
[31.05.2018 22:48:29] __________________________________________________________________________________________________
[31.05.2018 22:48:29] conv2d_49 (Conv2D)              (None, 12, 12, 192)  215040      30965760  activation_48[0][0]    
[31.05.2018 22:48:29] __________________________________________________________________________________________________
[31.05.2018 22:48:29] conv2d_50 (Conv2D)              (None, 12, 12, 192)  147456      21233664  average_pooling2d_5[0][
[31.05.2018 22:48:29] __________________________________________________________________________________________________
[31.05.2018 22:48:29] batch_normalization_41 (BatchNo (None, 12, 12, 192)  576         None      conv2d_41[0][0]        
[31.05.2018 22:48:29] __________________________________________________________________________________________________
[31.05.2018 22:48:29] batch_normalization_44 (BatchNo (None, 12, 12, 192)  576         None      conv2d_44[0][0]        
[31.05.2018 22:48:29] __________________________________________________________________________________________________
[31.05.2018 22:48:29] batch_normalization_49 (BatchNo (None, 12, 12, 192)  576         None      conv2d_49[0][0]        
[31.05.2018 22:48:29] __________________________________________________________________________________________________
[31.05.2018 22:48:29] batch_normalization_50 (BatchNo (None, 12, 12, 192)  576         None      conv2d_50[0][0]        
[31.05.2018 22:48:29] __________________________________________________________________________________________________
[31.05.2018 22:48:29] activation_41 (Activation)      (None, 12, 12, 192)  0           None      batch_normalization_41[
[31.05.2018 22:48:29] __________________________________________________________________________________________________
[31.05.2018 22:48:29] activation_44 (Activation)      (None, 12, 12, 192)  0           None      batch_normalization_44[
[31.05.2018 22:48:29] __________________________________________________________________________________________________
[31.05.2018 22:48:29] activation_49 (Activation)      (None, 12, 12, 192)  0           None      batch_normalization_49[
[31.05.2018 22:48:29] __________________________________________________________________________________________________
[31.05.2018 22:48:29] activation_50 (Activation)      (None, 12, 12, 192)  0           None      batch_normalization_50[
[31.05.2018 22:48:29] __________________________________________________________________________________________________
[31.05.2018 22:48:29] mixed5 (Concatenate)            (None, 12, 12, 768)  0           None      activation_41[0][0]    
[31.05.2018 22:48:29]                                                                  activation
[31.05.2018 22:48:29]                                                                  activation
[31.05.2018 22:48:29]                                                                  activation
[31.05.2018 22:48:29] __________________________________________________________________________________________________
[31.05.2018 22:48:29] conv2d_55 (Conv2D)              (None, 12, 12, 160)  122880      17694720  mixed5[0][0]           
[31.05.2018 22:48:29] __________________________________________________________________________________________________
[31.05.2018 22:48:29] batch_normalization_55 (BatchNo (None, 12, 12, 160)  480         None      conv2d_55[0][0]        
[31.05.2018 22:48:29] __________________________________________________________________________________________________
[31.05.2018 22:48:29] activation_55 (Activation)      (None, 12, 12, 160)  0           None      batch_normalization_55[
[31.05.2018 22:48:29] __________________________________________________________________________________________________
[31.05.2018 22:48:29] conv2d_56 (Conv2D)              (None, 12, 12, 160)  179200      25804800  activation_55[0][0]    
[31.05.2018 22:48:29] __________________________________________________________________________________________________
[31.05.2018 22:48:29] batch_normalization_56 (BatchNo (None, 12, 12, 160)  480         None      conv2d_56[0][0]        
[31.05.2018 22:48:29] __________________________________________________________________________________________________
[31.05.2018 22:48:29] activation_56 (Activation)      (None, 12, 12, 160)  0           None      batch_normalization_56[
[31.05.2018 22:48:29] __________________________________________________________________________________________________
[31.05.2018 22:48:29] conv2d_52 (Conv2D)              (None, 12, 12, 160)  122880      17694720  mixed5[0][0]           
[31.05.2018 22:48:29] __________________________________________________________________________________________________
[31.05.2018 22:48:29] conv2d_57 (Conv2D)              (None, 12, 12, 160)  179200      25804800  activation_56[0][0]    
[31.05.2018 22:48:29] __________________________________________________________________________________________________
[31.05.2018 22:48:29] batch_normalization_52 (BatchNo (None, 12, 12, 160)  480         None      conv2d_52[0][0]        
[31.05.2018 22:48:29] __________________________________________________________________________________________________
[31.05.2018 22:48:29] batch_normalization_57 (BatchNo (None, 12, 12, 160)  480         None      conv2d_57[0][0]        
[31.05.2018 22:48:29] __________________________________________________________________________________________________
[31.05.2018 22:48:29] activation_52 (Activation)      (None, 12, 12, 160)  0           None      batch_normalization_52[
[31.05.2018 22:48:29] __________________________________________________________________________________________________
[31.05.2018 22:48:29] activation_57 (Activation)      (None, 12, 12, 160)  0           None      batch_normalization_57[
[31.05.2018 22:48:29] __________________________________________________________________________________________________
[31.05.2018 22:48:29] conv2d_53 (Conv2D)              (None, 12, 12, 160)  179200      25804800  activation_52[0][0]    
[31.05.2018 22:48:29] __________________________________________________________________________________________________
[31.05.2018 22:48:29] conv2d_58 (Conv2D)              (None, 12, 12, 160)  179200      25804800  activation_57[0][0]    
[31.05.2018 22:48:29] __________________________________________________________________________________________________
[31.05.2018 22:48:29] batch_normalization_53 (BatchNo (None, 12, 12, 160)  480         None      conv2d_53[0][0]        
[31.05.2018 22:48:29] __________________________________________________________________________________________________
[31.05.2018 22:48:29] batch_normalization_58 (BatchNo (None, 12, 12, 160)  480         None      conv2d_58[0][0]        
[31.05.2018 22:48:29] __________________________________________________________________________________________________
[31.05.2018 22:48:29] activation_53 (Activation)      (None, 12, 12, 160)  0           None      batch_normalization_53[
[31.05.2018 22:48:29] __________________________________________________________________________________________________
[31.05.2018 22:48:29] activation_58 (Activation)      (None, 12, 12, 160)  0           None      batch_normalization_58[
[31.05.2018 22:48:29] __________________________________________________________________________________________________
[31.05.2018 22:48:29] average_pooling2d_6 (AveragePoo (None, 12, 12, 768)  0           None      mixed5[0][0]           
[31.05.2018 22:48:29] __________________________________________________________________________________________________
[31.05.2018 22:48:29] conv2d_51 (Conv2D)              (None, 12, 12, 192)  147456      21233664  mixed5[0][0]           
[31.05.2018 22:48:29] __________________________________________________________________________________________________
[31.05.2018 22:48:29] conv2d_54 (Conv2D)              (None, 12, 12, 192)  215040      30965760  activation_53[0][0]    
[31.05.2018 22:48:29] __________________________________________________________________________________________________
[31.05.2018 22:48:29] conv2d_59 (Conv2D)              (None, 12, 12, 192)  215040      30965760  activation_58[0][0]    
[31.05.2018 22:48:29] __________________________________________________________________________________________________
[31.05.2018 22:48:29] conv2d_60 (Conv2D)              (None, 12, 12, 192)  147456      21233664  average_pooling2d_6[0][
[31.05.2018 22:48:29] __________________________________________________________________________________________________
[31.05.2018 22:48:29] batch_normalization_51 (BatchNo (None, 12, 12, 192)  576         None      conv2d_51[0][0]        
[31.05.2018 22:48:29] __________________________________________________________________________________________________
[31.05.2018 22:48:29] batch_normalization_54 (BatchNo (None, 12, 12, 192)  576         None      conv2d_54[0][0]        
[31.05.2018 22:48:29] __________________________________________________________________________________________________
[31.05.2018 22:48:29] batch_normalization_59 (BatchNo (None, 12, 12, 192)  576         None      conv2d_59[0][0]        
[31.05.2018 22:48:29] __________________________________________________________________________________________________
[31.05.2018 22:48:29] batch_normalization_60 (BatchNo (None, 12, 12, 192)  576         None      conv2d_60[0][0]        
[31.05.2018 22:48:29] __________________________________________________________________________________________________
[31.05.2018 22:48:29] activation_51 (Activation)      (None, 12, 12, 192)  0           None      batch_normalization_51[
[31.05.2018 22:48:29] __________________________________________________________________________________________________
[31.05.2018 22:48:29] activation_54 (Activation)      (None, 12, 12, 192)  0           None      batch_normalization_54[
[31.05.2018 22:48:29] __________________________________________________________________________________________________
[31.05.2018 22:48:29] activation_59 (Activation)      (None, 12, 12, 192)  0           None      batch_normalization_59[
[31.05.2018 22:48:29] __________________________________________________________________________________________________
[31.05.2018 22:48:29] activation_60 (Activation)      (None, 12, 12, 192)  0           None      batch_normalization_60[
[31.05.2018 22:48:29] __________________________________________________________________________________________________
[31.05.2018 22:48:29] mixed6 (Concatenate)            (None, 12, 12, 768)  0           None      activation_51[0][0]    
[31.05.2018 22:48:29]                                                                  activation
[31.05.2018 22:48:29]                                                                  activation
[31.05.2018 22:48:29]                                                                  activation
[31.05.2018 22:48:29] __________________________________________________________________________________________________
[31.05.2018 22:48:29] conv2d_65 (Conv2D)              (None, 12, 12, 192)  147456      21233664  mixed6[0][0]           
[31.05.2018 22:48:29] __________________________________________________________________________________________________
[31.05.2018 22:48:29] batch_normalization_65 (BatchNo (None, 12, 12, 192)  576         None      conv2d_65[0][0]        
[31.05.2018 22:48:29] __________________________________________________________________________________________________
[31.05.2018 22:48:29] activation_65 (Activation)      (None, 12, 12, 192)  0           None      batch_normalization_65[
[31.05.2018 22:48:29] __________________________________________________________________________________________________
[31.05.2018 22:48:29] conv2d_66 (Conv2D)              (None, 12, 12, 192)  258048      37158912  activation_65[0][0]    
[31.05.2018 22:48:29] __________________________________________________________________________________________________
[31.05.2018 22:48:29] batch_normalization_66 (BatchNo (None, 12, 12, 192)  576         None      conv2d_66[0][0]        
[31.05.2018 22:48:29] __________________________________________________________________________________________________
[31.05.2018 22:48:29] activation_66 (Activation)      (None, 12, 12, 192)  0           None      batch_normalization_66[
[31.05.2018 22:48:29] __________________________________________________________________________________________________
[31.05.2018 22:48:29] conv2d_62 (Conv2D)              (None, 12, 12, 192)  147456      21233664  mixed6[0][0]           
[31.05.2018 22:48:29] __________________________________________________________________________________________________
[31.05.2018 22:48:29] conv2d_67 (Conv2D)              (None, 12, 12, 192)  258048      37158912  activation_66[0][0]    
[31.05.2018 22:48:29] __________________________________________________________________________________________________
[31.05.2018 22:48:29] batch_normalization_62 (BatchNo (None, 12, 12, 192)  576         None      conv2d_62[0][0]        
[31.05.2018 22:48:29] __________________________________________________________________________________________________
[31.05.2018 22:48:29] batch_normalization_67 (BatchNo (None, 12, 12, 192)  576         None      conv2d_67[0][0]        
[31.05.2018 22:48:29] __________________________________________________________________________________________________
[31.05.2018 22:48:29] activation_62 (Activation)      (None, 12, 12, 192)  0           None      batch_normalization_62[
[31.05.2018 22:48:29] __________________________________________________________________________________________________
[31.05.2018 22:48:29] activation_67 (Activation)      (None, 12, 12, 192)  0           None      batch_normalization_67[
[31.05.2018 22:48:29] __________________________________________________________________________________________________
[31.05.2018 22:48:29] conv2d_63 (Conv2D)              (None, 12, 12, 192)  258048      37158912  activation_62[0][0]    
[31.05.2018 22:48:29] __________________________________________________________________________________________________
[31.05.2018 22:48:29] conv2d_68 (Conv2D)              (None, 12, 12, 192)  258048      37158912  activation_67[0][0]    
[31.05.2018 22:48:29] __________________________________________________________________________________________________
[31.05.2018 22:48:29] batch_normalization_63 (BatchNo (None, 12, 12, 192)  576         None      conv2d_63[0][0]        
[31.05.2018 22:48:29] __________________________________________________________________________________________________
[31.05.2018 22:48:29] batch_normalization_68 (BatchNo (None, 12, 12, 192)  576         None      conv2d_68[0][0]        
[31.05.2018 22:48:29] __________________________________________________________________________________________________
[31.05.2018 22:48:29] activation_63 (Activation)      (None, 12, 12, 192)  0           None      batch_normalization_63[
[31.05.2018 22:48:29] __________________________________________________________________________________________________
[31.05.2018 22:48:29] activation_68 (Activation)      (None, 12, 12, 192)  0           None      batch_normalization_68[
[31.05.2018 22:48:29] __________________________________________________________________________________________________
[31.05.2018 22:48:29] average_pooling2d_7 (AveragePoo (None, 12, 12, 768)  0           None      mixed6[0][0]           
[31.05.2018 22:48:29] __________________________________________________________________________________________________
[31.05.2018 22:48:29] conv2d_61 (Conv2D)              (None, 12, 12, 192)  147456      21233664  mixed6[0][0]           
[31.05.2018 22:48:29] __________________________________________________________________________________________________
[31.05.2018 22:48:29] conv2d_64 (Conv2D)              (None, 12, 12, 192)  258048      37158912  activation_63[0][0]    
[31.05.2018 22:48:29] __________________________________________________________________________________________________
[31.05.2018 22:48:29] conv2d_69 (Conv2D)              (None, 12, 12, 192)  258048      37158912  activation_68[0][0]    
[31.05.2018 22:48:29] __________________________________________________________________________________________________
[31.05.2018 22:48:29] conv2d_70 (Conv2D)              (None, 12, 12, 192)  147456      21233664  average_pooling2d_7[0][
[31.05.2018 22:48:29] __________________________________________________________________________________________________
[31.05.2018 22:48:29] batch_normalization_61 (BatchNo (None, 12, 12, 192)  576         None      conv2d_61[0][0]        
[31.05.2018 22:48:29] __________________________________________________________________________________________________
[31.05.2018 22:48:29] batch_normalization_64 (BatchNo (None, 12, 12, 192)  576         None      conv2d_64[0][0]        
[31.05.2018 22:48:29] __________________________________________________________________________________________________
[31.05.2018 22:48:29] batch_normalization_69 (BatchNo (None, 12, 12, 192)  576         None      conv2d_69[0][0]        
[31.05.2018 22:48:29] __________________________________________________________________________________________________
[31.05.2018 22:48:29] batch_normalization_70 (BatchNo (None, 12, 12, 192)  576         None      conv2d_70[0][0]        
[31.05.2018 22:48:29] __________________________________________________________________________________________________
[31.05.2018 22:48:29] activation_61 (Activation)      (None, 12, 12, 192)  0           None      batch_normalization_61[
[31.05.2018 22:48:29] __________________________________________________________________________________________________
[31.05.2018 22:48:29] activation_64 (Activation)      (None, 12, 12, 192)  0           None      batch_normalization_64[
[31.05.2018 22:48:29] __________________________________________________________________________________________________
[31.05.2018 22:48:29] activation_69 (Activation)      (None, 12, 12, 192)  0           None      batch_normalization_69[
[31.05.2018 22:48:29] __________________________________________________________________________________________________
[31.05.2018 22:48:29] activation_70 (Activation)      (None, 12, 12, 192)  0           None      batch_normalization_70[
[31.05.2018 22:48:29] __________________________________________________________________________________________________
[31.05.2018 22:48:29] mixed7 (Concatenate)            (None, 12, 12, 768)  0           None      activation_61[0][0]    
[31.05.2018 22:48:29]                                                                  activation
[31.05.2018 22:48:29]                                                                  activation
[31.05.2018 22:48:29]                                                                  activation
[31.05.2018 22:48:29] __________________________________________________________________________________________________
[31.05.2018 22:48:29] conv2d_73 (Conv2D)              (None, 12, 12, 192)  147456      21233664  mixed7[0][0]           
[31.05.2018 22:48:29] __________________________________________________________________________________________________
[31.05.2018 22:48:29] batch_normalization_73 (BatchNo (None, 12, 12, 192)  576         None      conv2d_73[0][0]        
[31.05.2018 22:48:29] __________________________________________________________________________________________________
[31.05.2018 22:48:29] activation_73 (Activation)      (None, 12, 12, 192)  0           None      batch_normalization_73[
[31.05.2018 22:48:29] __________________________________________________________________________________________________
[31.05.2018 22:48:29] conv2d_74 (Conv2D)              (None, 12, 12, 192)  258048      37158912  activation_73[0][0]    
[31.05.2018 22:48:29] __________________________________________________________________________________________________
[31.05.2018 22:48:29] batch_normalization_74 (BatchNo (None, 12, 12, 192)  576         None      conv2d_74[0][0]        
[31.05.2018 22:48:29] __________________________________________________________________________________________________
[31.05.2018 22:48:29] activation_74 (Activation)      (None, 12, 12, 192)  0           None      batch_normalization_74[
[31.05.2018 22:48:29] __________________________________________________________________________________________________
[31.05.2018 22:48:29] conv2d_71 (Conv2D)              (None, 12, 12, 192)  147456      21233664  mixed7[0][0]           
[31.05.2018 22:48:29] __________________________________________________________________________________________________
[31.05.2018 22:48:29] conv2d_75 (Conv2D)              (None, 12, 12, 192)  258048      37158912  activation_74[0][0]    
[31.05.2018 22:48:29] __________________________________________________________________________________________________
[31.05.2018 22:48:29] batch_normalization_71 (BatchNo (None, 12, 12, 192)  576         None      conv2d_71[0][0]        
[31.05.2018 22:48:29] __________________________________________________________________________________________________
[31.05.2018 22:48:29] batch_normalization_75 (BatchNo (None, 12, 12, 192)  576         None      conv2d_75[0][0]        
[31.05.2018 22:48:29] __________________________________________________________________________________________________
[31.05.2018 22:48:29] activation_71 (Activation)      (None, 12, 12, 192)  0           None      batch_normalization_71[
[31.05.2018 22:48:29] __________________________________________________________________________________________________
[31.05.2018 22:48:29] activation_75 (Activation)      (None, 12, 12, 192)  0           None      batch_normalization_75[
[31.05.2018 22:48:29] __________________________________________________________________________________________________
[31.05.2018 22:48:29] conv2d_72 (Conv2D)              (None, 5, 5, 320)    552960      13824000  activation_71[0][0]    
[31.05.2018 22:48:29] __________________________________________________________________________________________________
[31.05.2018 22:48:29] conv2d_76 (Conv2D)              (None, 5, 5, 192)    331776      8294400   activation_75[0][0]    
[31.05.2018 22:48:29] __________________________________________________________________________________________________
[31.05.2018 22:48:29] batch_normalization_72 (BatchNo (None, 5, 5, 320)    960         None      conv2d_72[0][0]        
[31.05.2018 22:48:29] __________________________________________________________________________________________________
[31.05.2018 22:48:29] batch_normalization_76 (BatchNo (None, 5, 5, 192)    576         None      conv2d_76[0][0]        
[31.05.2018 22:48:29] __________________________________________________________________________________________________
[31.05.2018 22:48:29] activation_72 (Activation)      (None, 5, 5, 320)    0           None      batch_normalization_72[
[31.05.2018 22:48:29] __________________________________________________________________________________________________
[31.05.2018 22:48:29] activation_76 (Activation)      (None, 5, 5, 192)    0           None      batch_normalization_76[
[31.05.2018 22:48:29] __________________________________________________________________________________________________
[31.05.2018 22:48:29] max_pooling2d_4 (MaxPooling2D)  (None, 5, 5, 768)    0           None      mixed7[0][0]           
[31.05.2018 22:48:29] __________________________________________________________________________________________________
[31.05.2018 22:48:29] mixed8 (Concatenate)            (None, 5, 5, 1280)   0           None      activation_72[0][0]    
[31.05.2018 22:48:29]                                                                  activation
[31.05.2018 22:48:29]                                                                  max_poolin
[31.05.2018 22:48:29] __________________________________________________________________________________________________
[31.05.2018 22:48:29] conv2d_81 (Conv2D)              (None, 5, 5, 448)    573440      14336000  mixed8[0][0]           
[31.05.2018 22:48:29] __________________________________________________________________________________________________
[31.05.2018 22:48:29] batch_normalization_81 (BatchNo (None, 5, 5, 448)    1344        None      conv2d_81[0][0]        
[31.05.2018 22:48:29] __________________________________________________________________________________________________
[31.05.2018 22:48:29] activation_81 (Activation)      (None, 5, 5, 448)    0           None      batch_normalization_81[
[31.05.2018 22:48:29] __________________________________________________________________________________________________
[31.05.2018 22:48:29] conv2d_78 (Conv2D)              (None, 5, 5, 384)    491520      12288000  mixed8[0][0]           
[31.05.2018 22:48:29] __________________________________________________________________________________________________
[31.05.2018 22:48:29] conv2d_82 (Conv2D)              (None, 5, 5, 384)    1548288     38707200  activation_81[0][0]    
[31.05.2018 22:48:29] __________________________________________________________________________________________________
[31.05.2018 22:48:29] batch_normalization_78 (BatchNo (None, 5, 5, 384)    1152        None      conv2d_78[0][0]        
[31.05.2018 22:48:29] __________________________________________________________________________________________________
[31.05.2018 22:48:29] batch_normalization_82 (BatchNo (None, 5, 5, 384)    1152        None      conv2d_82[0][0]        
[31.05.2018 22:48:29] __________________________________________________________________________________________________
[31.05.2018 22:48:29] activation_78 (Activation)      (None, 5, 5, 384)    0           None      batch_normalization_78[
[31.05.2018 22:48:29] __________________________________________________________________________________________________
[31.05.2018 22:48:29] activation_82 (Activation)      (None, 5, 5, 384)    0           None      batch_normalization_82[
[31.05.2018 22:48:29] __________________________________________________________________________________________________
[31.05.2018 22:48:29] conv2d_79 (Conv2D)              (None, 5, 5, 384)    442368      11059200  activation_78[0][0]    
[31.05.2018 22:48:29] __________________________________________________________________________________________________
[31.05.2018 22:48:29] conv2d_80 (Conv2D)              (None, 5, 5, 384)    442368      11059200  activation_78[0][0]    
[31.05.2018 22:48:29] __________________________________________________________________________________________________
[31.05.2018 22:48:29] conv2d_83 (Conv2D)              (None, 5, 5, 384)    442368      11059200  activation_82[0][0]    
[31.05.2018 22:48:29] __________________________________________________________________________________________________
[31.05.2018 22:48:29] conv2d_84 (Conv2D)              (None, 5, 5, 384)    442368      11059200  activation_82[0][0]    
[31.05.2018 22:48:29] __________________________________________________________________________________________________
[31.05.2018 22:48:29] average_pooling2d_8 (AveragePoo (None, 5, 5, 1280)   0           None      mixed8[0][0]           
[31.05.2018 22:48:29] __________________________________________________________________________________________________
[31.05.2018 22:48:29] conv2d_77 (Conv2D)              (None, 5, 5, 320)    409600      10240000  mixed8[0][0]           
[31.05.2018 22:48:29] __________________________________________________________________________________________________
[31.05.2018 22:48:29] batch_normalization_79 (BatchNo (None, 5, 5, 384)    1152        None      conv2d_79[0][0]        
[31.05.2018 22:48:29] __________________________________________________________________________________________________
[31.05.2018 22:48:29] batch_normalization_80 (BatchNo (None, 5, 5, 384)    1152        None      conv2d_80[0][0]        
[31.05.2018 22:48:29] __________________________________________________________________________________________________
[31.05.2018 22:48:29] batch_normalization_83 (BatchNo (None, 5, 5, 384)    1152        None      conv2d_83[0][0]        
[31.05.2018 22:48:29] __________________________________________________________________________________________________
[31.05.2018 22:48:29] batch_normalization_84 (BatchNo (None, 5, 5, 384)    1152        None      conv2d_84[0][0]        
[31.05.2018 22:48:29] __________________________________________________________________________________________________
[31.05.2018 22:48:29] conv2d_85 (Conv2D)              (None, 5, 5, 192)    245760      6144000   average_pooling2d_8[0][
[31.05.2018 22:48:29] __________________________________________________________________________________________________
[31.05.2018 22:48:29] batch_normalization_77 (BatchNo (None, 5, 5, 320)    960         None      conv2d_77[0][0]        
[31.05.2018 22:48:29] __________________________________________________________________________________________________
[31.05.2018 22:48:29] activation_79 (Activation)      (None, 5, 5, 384)    0           None      batch_normalization_79[
[31.05.2018 22:48:29] __________________________________________________________________________________________________
[31.05.2018 22:48:29] activation_80 (Activation)      (None, 5, 5, 384)    0           None      batch_normalization_80[
[31.05.2018 22:48:29] __________________________________________________________________________________________________
[31.05.2018 22:48:29] activation_83 (Activation)      (None, 5, 5, 384)    0           None      batch_normalization_83[
[31.05.2018 22:48:29] __________________________________________________________________________________________________
[31.05.2018 22:48:29] activation_84 (Activation)      (None, 5, 5, 384)    0           None      batch_normalization_84[
[31.05.2018 22:48:29] __________________________________________________________________________________________________
[31.05.2018 22:48:29] batch_normalization_85 (BatchNo (None, 5, 5, 192)    576         None      conv2d_85[0][0]        
[31.05.2018 22:48:29] __________________________________________________________________________________________________
[31.05.2018 22:48:29] activation_77 (Activation)      (None, 5, 5, 320)    0           None      batch_normalization_77[
[31.05.2018 22:48:29] __________________________________________________________________________________________________
[31.05.2018 22:48:29] mixed9_0 (Concatenate)          (None, 5, 5, 768)    0           None      activation_79[0][0]    
[31.05.2018 22:48:29]                                                                  activation
[31.05.2018 22:48:29] __________________________________________________________________________________________________
[31.05.2018 22:48:29] concatenate_1 (Concatenate)     (None, 5, 5, 768)    0           None      activation_83[0][0]    
[31.05.2018 22:48:29]                                                                  activation
[31.05.2018 22:48:29] __________________________________________________________________________________________________
[31.05.2018 22:48:29] activation_85 (Activation)      (None, 5, 5, 192)    0           None      batch_normalization_85[
[31.05.2018 22:48:29] __________________________________________________________________________________________________
[31.05.2018 22:48:29] mixed9 (Concatenate)            (None, 5, 5, 2048)   0           None      activation_77[0][0]    
[31.05.2018 22:48:29]                                                                  mixed9_0[0
[31.05.2018 22:48:29]                                                                  concatenat
[31.05.2018 22:48:29]                                                                  activation
[31.05.2018 22:48:29] __________________________________________________________________________________________________
[31.05.2018 22:48:29] conv2d_90 (Conv2D)              (None, 5, 5, 448)    917504      22937600  mixed9[0][0]           
[31.05.2018 22:48:29] __________________________________________________________________________________________________
[31.05.2018 22:48:29] batch_normalization_90 (BatchNo (None, 5, 5, 448)    1344        None      conv2d_90[0][0]        
[31.05.2018 22:48:29] __________________________________________________________________________________________________
[31.05.2018 22:48:29] activation_90 (Activation)      (None, 5, 5, 448)    0           None      batch_normalization_90[
[31.05.2018 22:48:29] __________________________________________________________________________________________________
[31.05.2018 22:48:29] conv2d_87 (Conv2D)              (None, 5, 5, 384)    786432      19660800  mixed9[0][0]           
[31.05.2018 22:48:29] __________________________________________________________________________________________________
[31.05.2018 22:48:29] conv2d_91 (Conv2D)              (None, 5, 5, 384)    1548288     38707200  activation_90[0][0]    
[31.05.2018 22:48:29] __________________________________________________________________________________________________
[31.05.2018 22:48:29] batch_normalization_87 (BatchNo (None, 5, 5, 384)    1152        None      conv2d_87[0][0]        
[31.05.2018 22:48:29] __________________________________________________________________________________________________
[31.05.2018 22:48:29] batch_normalization_91 (BatchNo (None, 5, 5, 384)    1152        None      conv2d_91[0][0]        
[31.05.2018 22:48:29] __________________________________________________________________________________________________
[31.05.2018 22:48:29] activation_87 (Activation)      (None, 5, 5, 384)    0           None      batch_normalization_87[
[31.05.2018 22:48:29] __________________________________________________________________________________________________
[31.05.2018 22:48:29] activation_91 (Activation)      (None, 5, 5, 384)    0           None      batch_normalization_91[
[31.05.2018 22:48:29] __________________________________________________________________________________________________
[31.05.2018 22:48:29] conv2d_88 (Conv2D)              (None, 5, 5, 384)    442368      11059200  activation_87[0][0]    
[31.05.2018 22:48:29] __________________________________________________________________________________________________
[31.05.2018 22:48:29] conv2d_89 (Conv2D)              (None, 5, 5, 384)    442368      11059200  activation_87[0][0]    
[31.05.2018 22:48:29] __________________________________________________________________________________________________
[31.05.2018 22:48:29] conv2d_92 (Conv2D)              (None, 5, 5, 384)    442368      11059200  activation_91[0][0]    
[31.05.2018 22:48:29] __________________________________________________________________________________________________
[31.05.2018 22:48:29] conv2d_93 (Conv2D)              (None, 5, 5, 384)    442368      11059200  activation_91[0][0]    
[31.05.2018 22:48:29] __________________________________________________________________________________________________
[31.05.2018 22:48:29] average_pooling2d_9 (AveragePoo (None, 5, 5, 2048)   0           None      mixed9[0][0]           
[31.05.2018 22:48:29] __________________________________________________________________________________________________
[31.05.2018 22:48:29] conv2d_86 (Conv2D)              (None, 5, 5, 320)    655360      16384000  mixed9[0][0]           
[31.05.2018 22:48:29] __________________________________________________________________________________________________
[31.05.2018 22:48:29] batch_normalization_88 (BatchNo (None, 5, 5, 384)    1152        None      conv2d_88[0][0]        
[31.05.2018 22:48:29] __________________________________________________________________________________________________
[31.05.2018 22:48:29] batch_normalization_89 (BatchNo (None, 5, 5, 384)    1152        None      conv2d_89[0][0]        
[31.05.2018 22:48:29] __________________________________________________________________________________________________
[31.05.2018 22:48:29] batch_normalization_92 (BatchNo (None, 5, 5, 384)    1152        None      conv2d_92[0][0]        
[31.05.2018 22:48:29] __________________________________________________________________________________________________
[31.05.2018 22:48:29] batch_normalization_93 (BatchNo (None, 5, 5, 384)    1152        None      conv2d_93[0][0]        
[31.05.2018 22:48:29] __________________________________________________________________________________________________
[31.05.2018 22:48:29] conv2d_94 (Conv2D)              (None, 5, 5, 192)    393216      9830400   average_pooling2d_9[0][
[31.05.2018 22:48:29] __________________________________________________________________________________________________
[31.05.2018 22:48:29] batch_normalization_86 (BatchNo (None, 5, 5, 320)    960         None      conv2d_86[0][0]        
[31.05.2018 22:48:29] __________________________________________________________________________________________________
[31.05.2018 22:48:29] activation_88 (Activation)      (None, 5, 5, 384)    0           None      batch_normalization_88[
[31.05.2018 22:48:29] __________________________________________________________________________________________________
[31.05.2018 22:48:29] activation_89 (Activation)      (None, 5, 5, 384)    0           None      batch_normalization_89[
[31.05.2018 22:48:29] __________________________________________________________________________________________________
[31.05.2018 22:48:29] activation_92 (Activation)      (None, 5, 5, 384)    0           None      batch_normalization_92[
[31.05.2018 22:48:29] __________________________________________________________________________________________________
[31.05.2018 22:48:29] activation_93 (Activation)      (None, 5, 5, 384)    0           None      batch_normalization_93[
[31.05.2018 22:48:29] __________________________________________________________________________________________________
[31.05.2018 22:48:29] batch_normalization_94 (BatchNo (None, 5, 5, 192)    576         None      conv2d_94[0][0]        
[31.05.2018 22:48:29] __________________________________________________________________________________________________
[31.05.2018 22:48:29] activation_86 (Activation)      (None, 5, 5, 320)    0           None      batch_normalization_86[
[31.05.2018 22:48:29] __________________________________________________________________________________________________
[31.05.2018 22:48:29] mixed9_1 (Concatenate)          (None, 5, 5, 768)    0           None      activation_88[0][0]    
[31.05.2018 22:48:29]                                                                  activation
[31.05.2018 22:48:29] __________________________________________________________________________________________________
[31.05.2018 22:48:29] concatenate_2 (Concatenate)     (None, 5, 5, 768)    0           None      activation_92[0][0]    
[31.05.2018 22:48:29]                                                                  activation
[31.05.2018 22:48:29] __________________________________________________________________________________________________
[31.05.2018 22:48:29] activation_94 (Activation)      (None, 5, 5, 192)    0           None      batch_normalization_94[
[31.05.2018 22:48:29] __________________________________________________________________________________________________
[31.05.2018 22:48:29] mixed10 (Concatenate)           (None, 5, 5, 2048)   0           None      activation_86[0][0]    
[31.05.2018 22:48:29]                                                                  mixed9_1[0
[31.05.2018 22:48:29]                                                                  concatenat
[31.05.2018 22:48:29]                                                                  activation
[31.05.2018 22:48:29] __________________________________________________________________________________________________
[31.05.2018 22:48:29] global_average_pooling2d_1 (Glo (None, 256)          0           None      mixed0[0][0]           
[31.05.2018 22:48:29] __________________________________________________________________________________________________
[31.05.2018 22:48:29] global_average_pooling2d_2 (Glo (None, 288)          0           None      mixed1[0][0]           
[31.05.2018 22:48:29] __________________________________________________________________________________________________
[31.05.2018 22:48:29] global_average_pooling2d_3 (Glo (None, 288)          0           None      mixed2[0][0]           
[31.05.2018 22:48:29] __________________________________________________________________________________________________
[31.05.2018 22:48:29] global_average_pooling2d_4 (Glo (None, 768)          0           None      mixed3[0][0]           
[31.05.2018 22:48:29] __________________________________________________________________________________________________
[31.05.2018 22:48:29] global_average_pooling2d_5 (Glo (None, 768)          0           None      mixed4[0][0]           
[31.05.2018 22:48:29] __________________________________________________________________________________________________
[31.05.2018 22:48:29] global_average_pooling2d_6 (Glo (None, 768)          0           None      mixed5[0][0]           
[31.05.2018 22:48:29] __________________________________________________________________________________________________
[31.05.2018 22:48:29] global_average_pooling2d_7 (Glo (None, 768)          0           None      mixed6[0][0]           
[31.05.2018 22:48:29] __________________________________________________________________________________________________
[31.05.2018 22:48:29] global_average_pooling2d_8 (Glo (None, 768)          0           None      mixed7[0][0]           
[31.05.2018 22:48:29] __________________________________________________________________________________________________
[31.05.2018 22:48:29] global_average_pooling2d_9 (Glo (None, 1280)         0           None      mixed8[0][0]           
[31.05.2018 22:48:29] __________________________________________________________________________________________________
[31.05.2018 22:48:29] global_average_pooling2d_10 (Gl (None, 2048)         0           None      mixed9[0][0]           
[31.05.2018 22:48:29] __________________________________________________________________________________________________
[31.05.2018 22:48:29] global_average_pooling2d_11 (Gl (None, 2048)         0           None      mixed10[0][0]          
[31.05.2018 22:48:29] __________________________________________________________________________________________________
[31.05.2018 22:48:29] flatten_1 (Flatten)             (None, 51200)        0           None      mixed10[0][0]          
[31.05.2018 22:48:29] __________________________________________________________________________________________________
[31.05.2018 22:48:29] dropout_1 (Dropout)             (None, 256)          0           None      global_average_pooling2
[31.05.2018 22:48:29] __________________________________________________________________________________________________
[31.05.2018 22:48:29] dropout_2 (Dropout)             (None, 288)          0           None      global_average_pooling2
[31.05.2018 22:48:29] __________________________________________________________________________________________________
[31.05.2018 22:48:29] dropout_3 (Dropout)             (None, 288)          0           None      global_average_pooling2
[31.05.2018 22:48:29] __________________________________________________________________________________________________
[31.05.2018 22:48:29] dropout_4 (Dropout)             (None, 768)          0           None      global_average_pooling2
[31.05.2018 22:48:29] __________________________________________________________________________________________________
[31.05.2018 22:48:29] dropout_5 (Dropout)             (None, 768)          0           None      global_average_pooling2
[31.05.2018 22:48:29] __________________________________________________________________________________________________
[31.05.2018 22:48:29] dropout_6 (Dropout)             (None, 768)          0           None      global_average_pooling2
[31.05.2018 22:48:29] __________________________________________________________________________________________________
[31.05.2018 22:48:29] dropout_7 (Dropout)             (None, 768)          0           None      global_average_pooling2
[31.05.2018 22:48:29] __________________________________________________________________________________________________
[31.05.2018 22:48:29] dropout_8 (Dropout)             (None, 768)          0           None      global_average_pooling2
[31.05.2018 22:48:29] __________________________________________________________________________________________________
[31.05.2018 22:48:29] dropout_9 (Dropout)             (None, 1280)         0           None      global_average_pooling2
[31.05.2018 22:48:29] __________________________________________________________________________________________________
[31.05.2018 22:48:29] dropout_10 (Dropout)            (None, 2048)         0           None      global_average_pooling2
[31.05.2018 22:48:29] __________________________________________________________________________________________________
[31.05.2018 22:48:29] dropout_11 (Dropout)            (None, 2048)         0           None      global_average_pooling2
[31.05.2018 22:48:29] __________________________________________________________________________________________________
[31.05.2018 22:48:29] dropout_12 (Dropout)            (None, 51200)        0           None      flatten_1[0][0]        
[31.05.2018 22:48:29] __________________________________________________________________________________________________
[31.05.2018 22:48:29] intermediate_mixed0 (Dense)     (None, 10)           2570        2560      dropout_1[0][0]        
[31.05.2018 22:48:29] __________________________________________________________________________________________________
[31.05.2018 22:48:29] intermediate_mixed1 (Dense)     (None, 10)           2890        2880      dropout_2[0][0]        
[31.05.2018 22:48:29] __________________________________________________________________________________________________
[31.05.2018 22:48:29] intermediate_mixed2 (Dense)     (None, 10)           2890        2880      dropout_3[0][0]        
[31.05.2018 22:48:29] __________________________________________________________________________________________________
[31.05.2018 22:48:29] intermediate_mixed3 (Dense)     (None, 10)           7690        7680      dropout_4[0][0]        
[31.05.2018 22:48:29] __________________________________________________________________________________________________
[31.05.2018 22:48:29] intermediate_mixed4 (Dense)     (None, 10)           7690        7680      dropout_5[0][0]        
[31.05.2018 22:48:29] __________________________________________________________________________________________________
[31.05.2018 22:48:29] intermediate_mixed5 (Dense)     (None, 10)           7690        7680      dropout_6[0][0]        
[31.05.2018 22:48:29] __________________________________________________________________________________________________
[31.05.2018 22:48:29] intermediate_mixed6 (Dense)     (None, 10)           7690        7680      dropout_7[0][0]        
[31.05.2018 22:48:29] __________________________________________________________________________________________________
[31.05.2018 22:48:29] intermediate_mixed7 (Dense)     (None, 10)           7690        7680      dropout_8[0][0]        
[31.05.2018 22:48:29] __________________________________________________________________________________________________
[31.05.2018 22:48:29] intermediate_mixed8 (Dense)     (None, 10)           12810       12800     dropout_9[0][0]        
[31.05.2018 22:48:29] __________________________________________________________________________________________________
[31.05.2018 22:48:29] intermediate_mixed9 (Dense)     (None, 10)           20490       20480     dropout_10[0][0]       
[31.05.2018 22:48:29] __________________________________________________________________________________________________
[31.05.2018 22:48:29] intermediate_mixed10 (Dense)    (None, 10)           20490       20480     dropout_11[0][0]       
[31.05.2018 22:48:29] __________________________________________________________________________________________________
[31.05.2018 22:48:29] final_output (Dense)            (None, 10)           512010      512000    dropout_12[0][0]       
[31.05.2018 22:48:29] ==================================================================================================
[31.05.2018 22:48:29] Total params: 22,415,384
[31.05.2018 22:48:29] Trainable params: 612,600
[31.05.2018 22:48:29] Non-trainable params: 21,802,784
[31.05.2018 22:48:29] Total floating point operations: 2,836,485,600
[31.05.2018 22:48:29] __________________________________________________________________________________________________
…
