…
      (conv2): Conv2d(512, 512, kernel_size=(3, 3), stride=(1, 1), padding=(1, 1), bias=False)
      (bn2): BatchNorm2d(512, eps=1e-05, momentum=0.1, affine=True, track_running_stats=True)
    )
  )
  (avgpool): AvgPool2d(kernel_size=7, stride=1, padding=0)
  (fc): Linear(in_features=512, out_features=10, bias=True)
)

======================================================================================================
----------------------------------------------------------------
        Layer (type)               Output Shape         Param #
================================================================
            Conv2d-1         [-1, 64, 112, 112]           9,408
       BatchNorm2d-2         [-1, 64, 112, 112]             128
              ReLU-3         [-1, 64, 112, 112]               0
         MaxPool2d-4           [-1, 64, 56, 56]               0

1**1
            Conv2d-5           [-1, 64, 56, 56]          36,864
       BatchNorm2d-6           [-1, 64, 56, 56]             128
              ReLU-7           [-1, 64, 56, 56]               0
            Conv2d-8           [-1, 64, 56, 56]          36,864
       BatchNorm2d-9           [-1, 64, 56, 56]             128
             ReLU-10           [-1, 64, 56, 56]               0
       BasicBlock-11           [-1, 64, 56, 56]               0

1**2
           Conv2d-12           [-1, 64, 56, 56]          36,864
      BatchNorm2d-13           [-1, 64, 56, 56]             128
             ReLU-14           [-1, 64, 56, 56]               0
           Conv2d-15           [-1, 64, 56, 56]          36,864
      BatchNorm2d-16           [-1, 64, 56, 56]             128
             ReLU-17           [-1, 64, 56, 56]               0
       BasicBlock-18           [-1, 64, 56, 56]               0

1**3
           Conv2d-19           [-1, 64, 56, 56]          36,864
      BatchNorm2d-20           [-1, 64, 56, 56]             128
             ReLU-21           [-1, 64, 56, 56]               0
           Conv2d-22           [-1, 64, 56, 56]          36,864
      BatchNorm2d-23           [-1, 64, 56, 56]             128
             ReLU-24           [-1, 64, 56, 56]               0
       BasicBlock-25           [-1, 64, 56, 56]               0

2**1
           Conv2d-26          [-1, 128, 28, 28]          73,728
      BatchNorm2d-27          [-1, 128, 28, 28]             256
             ReLU-28          [-1, 128, 28, 28]               0
           Conv2d-29          [-1, 128, 28, 28]         147,456
      BatchNorm2d-30          [-1, 128, 28, 28]             256
           Conv2d-31          [-1, 128, 28, 28]           8,192
      BatchNorm2d-32          [-1, 128, 28, 28]             256
             ReLU-33          [-1, 128, 28, 28]               0
       BasicBlock-34          [-1, 128, 28, 28]               0

2**2
           Conv2d-35          [-1, 128, 28, 28]         147,456
      BatchNorm2d-36          [-1, 128, 28, 28]             256
             ReLU-37          [-1, 128, 28, 28]               0
           Conv2d-38          [-1, 128, 28, 28]         147,456
      BatchNorm2d-39          [-1, 128, 28, 28]             256
             ReLU-40          [-1, 128, 28, 28]               0
       BasicBlock-41          [-1, 128, 28, 28]               0

2**3
           Conv2d-42          [-1, 128, 28, 28]         147,456
      BatchNorm2d-43          [-1, 128, 28, 28]             256
             ReLU-44          [-1, 128, 28, 28]               0
           Conv2d-45          [-1, 128, 28, 28]         147,456
      BatchNorm2d-46          [-1, 128, 28, 28]             256
             ReLU-47          [-1, 128, 28, 28]               0
       BasicBlock-48          [-1, 128, 28, 28]               0

2**4
           Conv2d-49          [-1, 128, 28, 28]         147,456
      BatchNorm2d-50          [-1, 128, 28, 28]             256
             ReLU-51          [-1, 128, 28, 28]               0
           Conv2d-52          [-1, 128, 28, 28]         147,456
      BatchNorm2d-53          [-1, 128, 28, 28]             256
             ReLU-54          [-1, 128, 28, 28]               0
       BasicBlock-55          [-1, 128, 28, 28]               0

3**1
           Conv2d-56          [-1, 256, 14, 14]         294,912
      BatchNorm2d-57          [-1, 256, 14, 14]             512
             ReLU-58          [-1, 256, 14, 14]               0
           Conv2d-59          [-1, 256, 14, 14]         589,824
      BatchNorm2d-60          [-1, 256, 14, 14]             512
           Conv2d-61          [-1, 256, 14, 14]          32,768
      BatchNorm2d-62          [-1, 256, 14, 14]             512
             ReLU-63          [-1, 256, 14, 14]               0
       BasicBlock-64          [-1, 256, 14, 14]               0

3**2
           Conv2d-65          [-1, 256, 14, 14]         589,824
      BatchNorm2d-66          [-1, 256, 14, 14]             512
             ReLU-67          [-1, 256, 14, 14]               0
           Conv2d-68          [-1, 256, 14, 14]         589,824
      BatchNorm2d-69          [-1, 256, 14, 14]             512
             ReLU-70          [-1, 256, 14, 14]               0
       BasicBlock-71          [-1, 256, 14, 14]               0

3**3
           Conv2d-72          [-1, 256, 14, 14]         589,824
      BatchNorm2d-73          [-1, 256, 14, 14]             512
             ReLU-74          [-1, 256, 14, 14]               0
           Conv2d-75          [-1, 256, 14, 14]         589,824
      BatchNorm2d-76          [-1, 256, 14, 14]             512
             ReLU-77          [-1, 256, 14, 14]               0
       BasicBlock-78          [-1, 256, 14, 14]               0

3**4
           Conv2d-79          [-1, 256, 14, 14]         589,824
      BatchNorm2d-80          [-1, 256, 14, 14]             512
             ReLU-81          [-1, 256, 14, 14]               0
           Conv2d-82          [-1, 256, 14, 14]         589,824
      BatchNorm2d-83          [-1, 256, 14, 14]             512
             ReLU-84          [-1, 256, 14, 14]               0
       BasicBlock-85          [-1, 256, 14, 14]               0

3**5
           Conv2d-86          [-1, 256, 14, 14]         589,824
      BatchNorm2d-87          [-1, 256, 14, 14]             512
             ReLU-88          [-1, 256, 14, 14]               0
           Conv2d-89          [-1, 256, 14, 14]         589,824
      BatchNorm2d-90          [-1, 256, 14, 14]             512
             ReLU-91          [-1, 256, 14, 14]               0
       BasicBlock-92          [-1, 256, 14, 14]               0

3**6
           Conv2d-93          [-1, 256, 14, 14]         589,824
      BatchNorm2d-94          [-1, 256, 14, 14]             512
             ReLU-95          [-1, 256, 14, 14]               0
           Conv2d-96          [-1, 256, 14, 14]         589,824
      BatchNorm2d-97          [-1, 256, 14, 14]             512
             ReLU-98          [-1, 256, 14, 14]               0
       BasicBlock-99          [-1, 256, 14, 14]               0

4**1
          Conv2d-100            [-1, 512, 7, 7]       1,179,648
     BatchNorm2d-101            [-1, 512, 7, 7]           1,024
            ReLU-102            [-1, 512, 7, 7]               0
          Conv2d-103            [-1, 512, 7, 7]       2,359,296
     BatchNorm2d-104            [-1, 512, 7, 7]           1,024
          Conv2d-105            [-1, 512, 7, 7]         131,072
     BatchNorm2d-106            [-1, 512, 7, 7]           1,024
            ReLU-107            [-1, 512, 7, 7]               0
      BasicBlock-108            [-1, 512, 7, 7]               0

4**2
          Conv2d-109            [-1, 512, 7, 7]       2,359,296
     BatchNorm2d-110            [-1, 512, 7, 7]           1,024
            ReLU-111            [-1, 512, 7, 7]               0
          Conv2d-112            [-1, 512, 7, 7]       2,359,296
     BatchNorm2d-113            [-1, 512, 7, 7]           1,024
            ReLU-114            [-1, 512, 7, 7]               0
      BasicBlock-115            [-1, 512, 7, 7]               0

4**3
          Conv2d-116            [-1, 512, 7, 7]       2,359,296
     BatchNorm2d-117            [-1, 512, 7, 7]           1,024
            ReLU-118            [-1, 512, 7, 7]               0
          Conv2d-119            [-1, 512, 7, 7]       2,359,296
     BatchNorm2d-120            [-1, 512, 7, 7]           1,024
            ReLU-121            [-1, 512, 7, 7]               0
      BasicBlock-122            [-1, 512, 7, 7]               0


       AvgPool2d-123            [-1, 512, 1, 1]               0
          Linear-124                   [-1, 10]           5,130
          ResNet-125                   [-1, 10]               0
================================================================
Total params: 21,289,802
Trainable params: 21,289,802
Non-trainable params: 0
----------------------------------------------------------------