[31.05.2018 21:03:59] Pre-training cifar10on CIFAR10_from_8th_intermediate_resblock_Elastic-ResNet50...
[31.05.2018 21:04:10] Model summary:
[31.05.2018 21:04:10] __________________________________________________________________________________________________
[31.05.2018 21:04:10] Layer (type)                    Output Shape         Param #     Ops #     Connected to           
[31.05.2018 21:04:10] ==================================================================================================
[31.05.2018 21:04:10] input_1 (InputLayer)            (None, 224, 224, 3)  0           None                             
[31.05.2018 21:04:10] __________________________________________________________________________________________________
[31.05.2018 21:04:10] conv1_pad (ZeroPadding2D)       (None, 230, 230, 3)  0           None      input_1[0][0]          
[31.05.2018 21:04:10] __________________________________________________________________________________________________
[31.05.2018 21:04:10] conv1 (Conv2D)                  (None, 112, 112, 64) 9472        118013952 conv1_pad[0][0]        
[31.05.2018 21:04:10] __________________________________________________________________________________________________
[31.05.2018 21:04:10] bn_conv1 (BatchNormalization)   (None, 112, 112, 64) 256         None      conv1[0][0]            
[31.05.2018 21:04:10] __________________________________________________________________________________________________
[31.05.2018 21:04:10] activation_1 (Activation)       (None, 112, 112, 64) 0           None      bn_conv1[0][0]         
[31.05.2018 21:04:10] __________________________________________________________________________________________________
[31.05.2018 21:04:10] max_pooling2d_1 (MaxPooling2D)  (None, 55, 55, 64)   0           None      activation_1[0][0]     
[31.05.2018 21:04:10] __________________________________________________________________________________________________
[31.05.2018 21:04:10] res2a_branch2a (Conv2D)         (None, 55, 55, 64)   4160        12390400  max_pooling2d_1[0][0]  
[31.05.2018 21:04:10] __________________________________________________________________________________________________
[31.05.2018 21:04:10] bn2a_branch2a (BatchNormalizati (None, 55, 55, 64)   256         None      res2a_branch2a[0][0]   
[31.05.2018 21:04:10] __________________________________________________________________________________________________
[31.05.2018 21:04:10] activation_2 (Activation)       (None, 55, 55, 64)   0           None      bn2a_branch2a[0][0]    
[31.05.2018 21:04:10] __________________________________________________________________________________________________
[31.05.2018 21:04:10] res2a_branch2b (Conv2D)         (None, 55, 55, 64)   36928       111513600 activation_2[0][0]     
[31.05.2018 21:04:10] __________________________________________________________________________________________________
[31.05.2018 21:04:10] bn2a_branch2b (BatchNormalizati (None, 55, 55, 64)   256         None      res2a_branch2b[0][0]   
[31.05.2018 21:04:10] __________________________________________________________________________________________________
[31.05.2018 21:04:10] activation_3 (Activation)       (None, 55, 55, 64)   0           None      bn2a_branch2b[0][0]    
[31.05.2018 21:04:10] __________________________________________________________________________________________________
[31.05.2018 21:04:10] res2a_branch2c (Conv2D)         (None, 55, 55, 256)  16640       49561600  activation_3[0][0]     
[31.05.2018 21:04:10] __________________________________________________________________________________________________
[31.05.2018 21:04:10] res2a_branch1 (Conv2D)          (None, 55, 55, 256)  16640       49561600  max_pooling2d_1[0][0]  
[31.05.2018 21:04:10] __________________________________________________________________________________________________
[31.05.2018 21:04:10] bn2a_branch2c (BatchNormalizati (None, 55, 55, 256)  1024        None      res2a_branch2c[0][0]   
[31.05.2018 21:04:10] __________________________________________________________________________________________________
[31.05.2018 21:04:10] bn2a_branch1 (BatchNormalizatio (None, 55, 55, 256)  1024        None      res2a_branch1[0][0]    
[31.05.2018 21:04:10] __________________________________________________________________________________________________
[31.05.2018 21:04:10] add_1 (Add)                     (None, 55, 55, 256)  0           None      bn2a_branch2c[0][0]    
[31.05.2018 21:04:10]                                                                  bn2a_branc
[31.05.2018 21:04:10] __________________________________________________________________________________________________
[31.05.2018 21:04:10] activation_4 (Activation)       (None, 55, 55, 256)  0           None      add_1[0][0]            
[31.05.2018 21:04:10] __________________________________________________________________________________________________
[31.05.2018 21:04:10] res2b_branch2a (Conv2D)         (None, 55, 55, 64)   16448       49561600  activation_4[0][0]     
[31.05.2018 21:04:10] __________________________________________________________________________________________________
[31.05.2018 21:04:10] bn2b_branch2a (BatchNormalizati (None, 55, 55, 64)   256         None      res2b_branch2a[0][0]   
[31.05.2018 21:04:10] __________________________________________________________________________________________________
[31.05.2018 21:04:10] activation_5 (Activation)       (None, 55, 55, 64)   0           None      bn2b_branch2a[0][0]    
[31.05.2018 21:04:10] __________________________________________________________________________________________________
[31.05.2018 21:04:10] res2b_branch2b (Conv2D)         (None, 55, 55, 64)   36928       111513600 activation_5[0][0]     
[31.05.2018 21:04:10] __________________________________________________________________________________________________
[31.05.2018 21:04:10] bn2b_branch2b (BatchNormalizati (None, 55, 55, 64)   256         None      res2b_branch2b[0][0]   
[31.05.2018 21:04:10] __________________________________________________________________________________________________
[31.05.2018 21:04:10] activation_6 (Activation)       (None, 55, 55, 64)   0           None      bn2b_branch2b[0][0]    
[31.05.2018 21:04:10] __________________________________________________________________________________________________
[31.05.2018 21:04:10] res2b_branch2c (Conv2D)         (None, 55, 55, 256)  16640       49561600  activation_6[0][0]     
[31.05.2018 21:04:10] __________________________________________________________________________________________________
[31.05.2018 21:04:10] bn2b_branch2c (BatchNormalizati (None, 55, 55, 256)  1024        None      res2b_branch2c[0][0]   
[31.05.2018 21:04:10] __________________________________________________________________________________________________
[31.05.2018 21:04:10] add_2 (Add)                     (None, 55, 55, 256)  0           None      bn2b_branch2c[0][0]    
[31.05.2018 21:04:10]                                                                  activation
[31.05.2018 21:04:10] __________________________________________________________________________________________________
[31.05.2018 21:04:10] activation_7 (Activation)       (None, 55, 55, 256)  0           None      add_2[0][0]            
[31.05.2018 21:04:10] __________________________________________________________________________________________________
[31.05.2018 21:04:10] res2c_branch2a (Conv2D)         (None, 55, 55, 64)   16448       49561600  activation_7[0][0]     
[31.05.2018 21:04:10] __________________________________________________________________________________________________
[31.05.2018 21:04:10] bn2c_branch2a (BatchNormalizati (None, 55, 55, 64)   256         None      res2c_branch2a[0][0]   
[31.05.2018 21:04:10] __________________________________________________________________________________________________
[31.05.2018 21:04:10] activation_8 (Activation)       (None, 55, 55, 64)   0           None      bn2c_branch2a[0][0]    
[31.05.2018 21:04:10] __________________________________________________________________________________________________
[31.05.2018 21:04:10] res2c_branch2b (Conv2D)         (None, 55, 55, 64)   36928       111513600 activation_8[0][0]     
[31.05.2018 21:04:10] __________________________________________________________________________________________________
[31.05.2018 21:04:10] bn2c_branch2b (BatchNormalizati (None, 55, 55, 64)   256         None      res2c_branch2b[0][0]   
[31.05.2018 21:04:10] __________________________________________________________________________________________________
[31.05.2018 21:04:10] activation_9 (Activation)       (None, 55, 55, 64)   0           None      bn2c_branch2b[0][0]    
[31.05.2018 21:04:10] __________________________________________________________________________________________________
[31.05.2018 21:04:10] res2c_branch2c (Conv2D)         (None, 55, 55, 256)  16640       49561600  activation_9[0][0]     
[31.05.2018 21:04:10] __________________________________________________________________________________________________
[31.05.2018 21:04:10] bn2c_branch2c (BatchNormalizati (None, 55, 55, 256)  1024        None      res2c_branch2c[0][0]   
[31.05.2018 21:04:10] __________________________________________________________________________________________________
[31.05.2018 21:04:10] add_3 (Add)                     (None, 55, 55, 256)  0           None      bn2c_branch2c[0][0]    
[31.05.2018 21:04:10]                                                                  activation
[31.05.2018 21:04:10] __________________________________________________________________________________________________
[31.05.2018 21:04:10] activation_10 (Activation)      (None, 55, 55, 256)  0           None      add_3[0][0]            
[31.05.2018 21:04:10] __________________________________________________________________________________________________
[31.05.2018 21:04:10] res3a_branch2a (Conv2D)         (None, 28, 28, 128)  32896       25690112  activation_10[0][0]    
[31.05.2018 21:04:10] __________________________________________________________________________________________________
[31.05.2018 21:04:10] bn3a_branch2a (BatchNormalizati (None, 28, 28, 128)  512         None      res3a_branch2a[0][0]   
[31.05.2018 21:04:10] __________________________________________________________________________________________________
[31.05.2018 21:04:10] activation_11 (Activation)      (None, 28, 28, 128)  0           None      bn3a_branch2a[0][0]    
[31.05.2018 21:04:10] __________________________________________________________________________________________________
[31.05.2018 21:04:10] res3a_branch2b (Conv2D)         (None, 28, 28, 128)  147584      115605504 activation_11[0][0]    
[31.05.2018 21:04:10] __________________________________________________________________________________________________
[31.05.2018 21:04:10] bn3a_branch2b (BatchNormalizati (None, 28, 28, 128)  512         None      res3a_branch2b[0][0]   
[31.05.2018 21:04:10] __________________________________________________________________________________________________
[31.05.2018 21:04:10] activation_12 (Activation)      (None, 28, 28, 128)  0           None      bn3a_branch2b[0][0]    
[31.05.2018 21:04:10] __________________________________________________________________________________________________
[31.05.2018 21:04:10] res3a_branch2c (Conv2D)         (None, 28, 28, 512)  66048       51380224  activation_12[0][0]    
[31.05.2018 21:04:10] __________________________________________________________________________________________________
[31.05.2018 21:04:10] res3a_branch1 (Conv2D)          (None, 28, 28, 512)  131584      102760448 activation_10[0][0]    
[31.05.2018 21:04:10] __________________________________________________________________________________________________
[31.05.2018 21:04:10] bn3a_branch2c (BatchNormalizati (None, 28, 28, 512)  2048        None      res3a_branch2c[0][0]   
[31.05.2018 21:04:10] __________________________________________________________________________________________________
[31.05.2018 21:04:10] bn3a_branch1 (BatchNormalizatio (None, 28, 28, 512)  2048        None      res3a_branch1[0][0]    
[31.05.2018 21:04:10] __________________________________________________________________________________________________
[31.05.2018 21:04:10] add_4 (Add)                     (None, 28, 28, 512)  0           None      bn3a_branch2c[0][0]    
[31.05.2018 21:04:10]                                                                  bn3a_branc
[31.05.2018 21:04:10] __________________________________________________________________________________________________
[31.05.2018 21:04:10] activation_13 (Activation)      (None, 28, 28, 512)  0           None      add_4[0][0]            
[31.05.2018 21:04:10] __________________________________________________________________________________________________
[31.05.2018 21:04:10] res3b_branch2a (Conv2D)         (None, 28, 28, 128)  65664       51380224  activation_13[0][0]    
[31.05.2018 21:04:10] __________________________________________________________________________________________________
[31.05.2018 21:04:10] bn3b_branch2a (BatchNormalizati (None, 28, 28, 128)  512         None      res3b_branch2a[0][0]   
[31.05.2018 21:04:10] __________________________________________________________________________________________________
[31.05.2018 21:04:10] activation_14 (Activation)      (None, 28, 28, 128)  0           None      bn3b_branch2a[0][0]    
[31.05.2018 21:04:10] __________________________________________________________________________________________________
[31.05.2018 21:04:10] res3b_branch2b (Conv2D)         (None, 28, 28, 128)  147584      115605504 activation_14[0][0]    
[31.05.2018 21:04:10] __________________________________________________________________________________________________
[31.05.2018 21:04:10] bn3b_branch2b (BatchNormalizati (None, 28, 28, 128)  512         None      res3b_branch2b[0][0]   
[31.05.2018 21:04:10] __________________________________________________________________________________________________
[31.05.2018 21:04:10] activation_15 (Activation)      (None, 28, 28, 128)  0           None      bn3b_branch2b[0][0]    
[31.05.2018 21:04:10] __________________________________________________________________________________________________
[31.05.2018 21:04:10] res3b_branch2c (Conv2D)         (None, 28, 28, 512)  66048       51380224  activation_15[0][0]    
[31.05.2018 21:04:10] __________________________________________________________________________________________________
[31.05.2018 21:04:10] bn3b_branch2c (BatchNormalizati (None, 28, 28, 512)  2048        None      res3b_branch2c[0][0]   
[31.05.2018 21:04:10] __________________________________________________________________________________________________
[31.05.2018 21:04:10] add_5 (Add)                     (None, 28, 28, 512)  0           None      bn3b_branch2c[0][0]    
[31.05.2018 21:04:10]                                                                  activation
[31.05.2018 21:04:10] __________________________________________________________________________________________________
[31.05.2018 21:04:10] activation_16 (Activation)      (None, 28, 28, 512)  0           None      add_5[0][0]            
[31.05.2018 21:04:10] __________________________________________________________________________________________________
[31.05.2018 21:04:10] res3c_branch2a (Conv2D)         (None, 28, 28, 128)  65664       51380224  activation_16[0][0]    
[31.05.2018 21:04:10] __________________________________________________________________________________________________
[31.05.2018 21:04:10] bn3c_branch2a (BatchNormalizati (None, 28, 28, 128)  512         None      res3c_branch2a[0][0]   
[31.05.2018 21:04:10] __________________________________________________________________________________________________
[31.05.2018 21:04:10] activation_17 (Activation)      (None, 28, 28, 128)  0           None      bn3c_branch2a[0][0]    
[31.05.2018 21:04:10] __________________________________________________________________________________________________
[31.05.2018 21:04:10] res3c_branch2b (Conv2D)         (None, 28, 28, 128)  147584      115605504 activation_17[0][0]    
[31.05.2018 21:04:10] __________________________________________________________________________________________________
[31.05.2018 21:04:10] bn3c_branch2b (BatchNormalizati (None, 28, 28, 128)  512         None      res3c_branch2b[0][0]   
[31.05.2018 21:04:10] __________________________________________________________________________________________________
[31.05.2018 21:04:10] activation_18 (Activation)      (None, 28, 28, 128)  0           None      bn3c_branch2b[0][0]    
[31.05.2018 21:04:10] __________________________________________________________________________________________________
[31.05.2018 21:04:10] res3c_branch2c (Conv2D)         (None, 28, 28, 512)  66048       51380224  activation_18[0][0]    
[31.05.2018 21:04:10] __________________________________________________________________________________________________
[31.05.2018 21:04:10] bn3c_branch2c (BatchNormalizati (None, 28, 28, 512)  2048        None      res3c_branch2c[0][0]   
[31.05.2018 21:04:10] __________________________________________________________________________________________________
[31.05.2018 21:04:10] add_6 (Add)                     (None, 28, 28, 512)  0           None      bn3c_branch2c[0][0]    
[31.05.2018 21:04:10]                                                                  activation
[31.05.2018 21:04:10] __________________________________________________________________________________________________
[31.05.2018 21:04:10] activation_19 (Activation)      (None, 28, 28, 512)  0           None      add_6[0][0]            
[31.05.2018 21:04:10] __________________________________________________________________________________________________
[31.05.2018 21:04:10] res3d_branch2a (Conv2D)         (None, 28, 28, 128)  65664       51380224  activation_19[0][0]    
[31.05.2018 21:04:10] __________________________________________________________________________________________________
[31.05.2018 21:04:10] bn3d_branch2a (BatchNormalizati (None, 28, 28, 128)  512         None      res3d_branch2a[0][0]   
[31.05.2018 21:04:10] __________________________________________________________________________________________________
[31.05.2018 21:04:10] activation_20 (Activation)      (None, 28, 28, 128)  0           None      bn3d_branch2a[0][0]    
[31.05.2018 21:04:10] __________________________________________________________________________________________________
[31.05.2018 21:04:10] res3d_branch2b (Conv2D)         (None, 28, 28, 128)  147584      115605504 activation_20[0][0]    
[31.05.2018 21:04:10] __________________________________________________________________________________________________
[31.05.2018 21:04:10] bn3d_branch2b (BatchNormalizati (None, 28, 28, 128)  512         None      res3d_branch2b[0][0]   
[31.05.2018 21:04:10] __________________________________________________________________________________________________
[31.05.2018 21:04:10] activation_21 (Activation)      (None, 28, 28, 128)  0           None      bn3d_branch2b[0][0]    
[31.05.2018 21:04:10] __________________________________________________________________________________________________
[31.05.2018 21:04:10] res3d_branch2c (Conv2D)         (None, 28, 28, 512)  66048       51380224  activation_21[0][0]    
[31.05.2018 21:04:10] __________________________________________________________________________________________________
[31.05.2018 21:04:10] bn3d_branch2c (BatchNormalizati (None, 28, 28, 512)  2048        None      res3d_branch2c[0][0]   
[31.05.2018 21:04:10] __________________________________________________________________________________________________
[31.05.2018 21:04:10] add_7 (Add)                     (None, 28, 28, 512)  0           None      bn3d_branch2c[0][0]    
[31.05.2018 21:04:10]                                                                  activation
[31.05.2018 21:04:10] __________________________________________________________________________________________________
[31.05.2018 21:04:10] activation_22 (Activation)      (None, 28, 28, 512)  0           None      add_7[0][0]            
[31.05.2018 21:04:10] __________________________________________________________________________________________________
[31.05.2018 21:04:10] res4a_branch2a (Conv2D)         (None, 14, 14, 256)  131328      25690112  activation_22[0][0]    
[31.05.2018 21:04:10] __________________________________________________________________________________________________
[31.05.2018 21:04:10] bn4a_branch2a (BatchNormalizati (None, 14, 14, 256)  1024        None      res4a_branch2a[0][0]   
[31.05.2018 21:04:10] __________________________________________________________________________________________________
[31.05.2018 21:04:10] activation_23 (Activation)      (None, 14, 14, 256)  0           None      bn4a_branch2a[0][0]    
[31.05.2018 21:04:10] __________________________________________________________________________________________________
[31.05.2018 21:04:10] res4a_branch2b (Conv2D)         (None, 14, 14, 256)  590080      115605504 activation_23[0][0]    
[31.05.2018 21:04:10] __________________________________________________________________________________________________
[31.05.2018 21:04:10] bn4a_branch2b (BatchNormalizati (None, 14, 14, 256)  1024        None      res4a_branch2b[0][0]   
[31.05.2018 21:04:10] __________________________________________________________________________________________________
[31.05.2018 21:04:10] activation_24 (Activation)      (None, 14, 14, 256)  0           None      bn4a_branch2b[0][0]    
[31.05.2018 21:04:10] __________________________________________________________________________________________________
[31.05.2018 21:04:10] res4a_branch2c (Conv2D)         (None, 14, 14, 1024) 263168      51380224  activation_24[0][0]    
[31.05.2018 21:04:10] __________________________________________________________________________________________________
[31.05.2018 21:04:10] res4a_branch1 (Conv2D)          (None, 14, 14, 1024) 525312      102760448 activation_22[0][0]    
[31.05.2018 21:04:10] __________________________________________________________________________________________________
[31.05.2018 21:04:10] bn4a_branch2c (BatchNormalizati (None, 14, 14, 1024) 4096        None      res4a_branch2c[0][0]   
[31.05.2018 21:04:10] __________________________________________________________________________________________________
[31.05.2018 21:04:10] bn4a_branch1 (BatchNormalizatio (None, 14, 14, 1024) 4096        None      res4a_branch1[0][0]    
[31.05.2018 21:04:10] __________________________________________________________________________________________________
[31.05.2018 21:04:10] add_8 (Add)                     (None, 14, 14, 1024) 0           None      bn4a_branch2c[0][0]    
[31.05.2018 21:04:10]                                                                  bn4a_branc
[31.05.2018 21:04:10] __________________________________________________________________________________________________
[31.05.2018 21:04:10] activation_25 (Activation)      (None, 14, 14, 1024) 0           None      add_8[0][0]            
[31.05.2018 21:04:10] __________________________________________________________________________________________________
[31.05.2018 21:04:10] res4b_branch2a (Conv2D)         (None, 14, 14, 256)  262400      51380224  activation_25[0][0]    
[31.05.2018 21:04:10] __________________________________________________________________________________________________
[31.05.2018 21:04:10] bn4b_branch2a (BatchNormalizati (None, 14, 14, 256)  1024        None      res4b_branch2a[0][0]   
[31.05.2018 21:04:10] __________________________________________________________________________________________________
[31.05.2018 21:04:10] activation_26 (Activation)      (None, 14, 14, 256)  0           None      bn4b_branch2a[0][0]    
[31.05.2018 21:04:10] __________________________________________________________________________________________________
[31.05.2018 21:04:10] res4b_branch2b (Conv2D)         (None, 14, 14, 256)  590080      115605504 activation_26[0][0]    
[31.05.2018 21:04:10] __________________________________________________________________________________________________
[31.05.2018 21:04:10] bn4b_branch2b (BatchNormalizati (None, 14, 14, 256)  1024        None      res4b_branch2b[0][0]   
[31.05.2018 21:04:10] __________________________________________________________________________________________________
[31.05.2018 21:04:10] activation_27 (Activation)      (None, 14, 14, 256)  0           None      bn4b_branch2b[0][0]    
[31.05.2018 21:04:10] __________________________________________________________________________________________________
[31.05.2018 21:04:10] res4b_branch2c (Conv2D)         (None, 14, 14, 1024) 263168      51380224  activation_27[0][0]    
[31.05.2018 21:04:10] __________________________________________________________________________________________________
[31.05.2018 21:04:10] bn4b_branch2c (BatchNormalizati (None, 14, 14, 1024) 4096        None      res4b_branch2c[0][0]   
[31.05.2018 21:04:10] __________________________________________________________________________________________________
[31.05.2018 21:04:10] add_9 (Add)                     (None, 14, 14, 1024) 0           None      bn4b_branch2c[0][0]    
[31.05.2018 21:04:10]                                                                  activation
[31.05.2018 21:04:10] __________________________________________________________________________________________________
[31.05.2018 21:04:10] activation_28 (Activation)      (None, 14, 14, 1024) 0           None      add_9[0][0]            
[31.05.2018 21:04:10] __________________________________________________________________________________________________
[31.05.2018 21:04:10] res4c_branch2a (Conv2D)         (None, 14, 14, 256)  262400      51380224  activation_28[0][0]    
[31.05.2018 21:04:10] __________________________________________________________________________________________________
[31.05.2018 21:04:10] bn4c_branch2a (BatchNormalizati (None, 14, 14, 256)  1024        None      res4c_branch2a[0][0]   
[31.05.2018 21:04:10] __________________________________________________________________________________________________
[31.05.2018 21:04:10] activation_29 (Activation)      (None, 14, 14, 256)  0           None      bn4c_branch2a[0][0]    
[31.05.2018 21:04:10] __________________________________________________________________________________________________
[31.05.2018 21:04:10] res4c_branch2b (Conv2D)         (None, 14, 14, 256)  590080      115605504 activation_29[0][0]    
[31.05.2018 21:04:10] __________________________________________________________________________________________________
[31.05.2018 21:04:10] bn4c_branch2b (BatchNormalizati (None, 14, 14, 256)  1024        None      res4c_branch2b[0][0]   
[31.05.2018 21:04:10] __________________________________________________________________________________________________
[31.05.2018 21:04:10] activation_30 (Activation)      (None, 14, 14, 256)  0           None      bn4c_branch2b[0][0]    
[31.05.2018 21:04:10] __________________________________________________________________________________________________
[31.05.2018 21:04:10] res4c_branch2c (Conv2D)         (None, 14, 14, 1024) 263168      51380224  activation_30[0][0]    
[31.05.2018 21:04:10] __________________________________________________________________________________________________
[31.05.2018 21:04:10] bn4c_branch2c (BatchNormalizati (None, 14, 14, 1024) 4096        None      res4c_branch2c[0][0]   
[31.05.2018 21:04:10] __________________________________________________________________________________________________
[31.05.2018 21:04:10] add_10 (Add)                    (None, 14, 14, 1024) 0           None      bn4c_branch2c[0][0]    
[31.05.2018 21:04:10]                                                                  activation
[31.05.2018 21:04:10] __________________________________________________________________________________________________
[31.05.2018 21:04:10] activation_31 (Activation)      (None, 14, 14, 1024) 0           None      add_10[0][0]           
[31.05.2018 21:04:10] __________________________________________________________________________________________________
[31.05.2018 21:04:10] res4d_branch2a (Conv2D)         (None, 14, 14, 256)  262400      51380224  activation_31[0][0]    
[31.05.2018 21:04:10] __________________________________________________________________________________________________
[31.05.2018 21:04:10] bn4d_branch2a (BatchNormalizati (None, 14, 14, 256)  1024        None      res4d_branch2a[0][0]   
[31.05.2018 21:04:10] __________________________________________________________________________________________________
[31.05.2018 21:04:10] activation_32 (Activation)      (None, 14, 14, 256)  0           None      bn4d_branch2a[0][0]    
[31.05.2018 21:04:10] __________________________________________________________________________________________________
[31.05.2018 21:04:10] res4d_branch2b (Conv2D)         (None, 14, 14, 256)  590080      115605504 activation_32[0][0]    
[31.05.2018 21:04:10] __________________________________________________________________________________________________
[31.05.2018 21:04:10] bn4d_branch2b (BatchNormalizati (None, 14, 14, 256)  1024        None      res4d_branch2b[0][0]   
[31.05.2018 21:04:10] __________________________________________________________________________________________________
[31.05.2018 21:04:10] activation_33 (Activation)      (None, 14, 14, 256)  0           None      bn4d_branch2b[0][0]    
[31.05.2018 21:04:10] __________________________________________________________________________________________________
[31.05.2018 21:04:10] res4d_branch2c (Conv2D)         (None, 14, 14, 1024) 263168      51380224  activation_33[0][0]    
[31.05.2018 21:04:10] __________________________________________________________________________________________________
[31.05.2018 21:04:10] bn4d_branch2c (BatchNormalizati (None, 14, 14, 1024) 4096        None      res4d_branch2c[0][0]   
[31.05.2018 21:04:10] __________________________________________________________________________________________________
[31.05.2018 21:04:10] add_11 (Add)                    (None, 14, 14, 1024) 0           None      bn4d_branch2c[0][0]    
[31.05.2018 21:04:10]                                                                  activation
[31.05.2018 21:04:10] __________________________________________________________________________________________________
[31.05.2018 21:04:10] activation_34 (Activation)      (None, 14, 14, 1024) 0           None      add_11[0][0]           
[31.05.2018 21:04:10] __________________________________________________________________________________________________
[31.05.2018 21:04:10] res4e_branch2a (Conv2D)         (None, 14, 14, 256)  262400      51380224  activation_34[0][0]    
[31.05.2018 21:04:10] __________________________________________________________________________________________________
[31.05.2018 21:04:10] bn4e_branch2a (BatchNormalizati (None, 14, 14, 256)  1024        None      res4e_branch2a[0][0]   
[31.05.2018 21:04:10] __________________________________________________________________________________________________
[31.05.2018 21:04:10] activation_35 (Activation)      (None, 14, 14, 256)  0           None      bn4e_branch2a[0][0]    
[31.05.2018 21:04:10] __________________________________________________________________________________________________
[31.05.2018 21:04:10] res4e_branch2b (Conv2D)         (None, 14, 14, 256)  590080      115605504 activation_35[0][0]    
[31.05.2018 21:04:10] __________________________________________________________________________________________________
[31.05.2018 21:04:10] bn4e_branch2b (BatchNormalizati (None, 14, 14, 256)  1024        None      res4e_branch2b[0][0]   
[31.05.2018 21:04:10] __________________________________________________________________________________________________
[31.05.2018 21:04:10] activation_36 (Activation)      (None, 14, 14, 256)  0           None      bn4e_branch2b[0][0]    
[31.05.2018 21:04:10] __________________________________________________________________________________________________
[31.05.2018 21:04:10] res4e_branch2c (Conv2D)         (None, 14, 14, 1024) 263168      51380224  activation_36[0][0]    
[31.05.2018 21:04:10] __________________________________________________________________________________________________
[31.05.2018 21:04:10] bn4e_branch2c (BatchNormalizati (None, 14, 14, 1024) 4096        None      res4e_branch2c[0][0]   
[31.05.2018 21:04:10] __________________________________________________________________________________________________
[31.05.2018 21:04:10] add_12 (Add)                    (None, 14, 14, 1024) 0           None      bn4e_branch2c[0][0]    
[31.05.2018 21:04:10]                                                                  activation
[31.05.2018 21:04:10] __________________________________________________________________________________________________
[31.05.2018 21:04:10] activation_37 (Activation)      (None, 14, 14, 1024) 0           None      add_12[0][0]           
[31.05.2018 21:04:10] __________________________________________________________________________________________________
[31.05.2018 21:04:10] res4f_branch2a (Conv2D)         (None, 14, 14, 256)  262400      51380224  activation_37[0][0]    
[31.05.2018 21:04:10] __________________________________________________________________________________________________
[31.05.2018 21:04:10] bn4f_branch2a (BatchNormalizati (None, 14, 14, 256)  1024        None      res4f_branch2a[0][0]   
[31.05.2018 21:04:10] __________________________________________________________________________________________________
[31.05.2018 21:04:10] activation_38 (Activation)      (None, 14, 14, 256)  0           None      bn4f_branch2a[0][0]    
[31.05.2018 21:04:10] __________________________________________________________________________________________________
[31.05.2018 21:04:10] res4f_branch2b (Conv2D)         (None, 14, 14, 256)  590080      115605504 activation_38[0][0]    
[31.05.2018 21:04:10] __________________________________________________________________________________________________
[31.05.2018 21:04:10] bn4f_branch2b (BatchNormalizati (None, 14, 14, 256)  1024        None      res4f_branch2b[0][0]   
[31.05.2018 21:04:10] __________________________________________________________________________________________________
[31.05.2018 21:04:10] activation_39 (Activation)      (None, 14, 14, 256)  0           None      bn4f_branch2b[0][0]    
[31.05.2018 21:04:10] __________________________________________________________________________________________________
[31.05.2018 21:04:10] res4f_branch2c (Conv2D)         (None, 14, 14, 1024) 263168      51380224  activation_39[0][0]    
[31.05.2018 21:04:10] __________________________________________________________________________________________________
[31.05.2018 21:04:10] bn4f_branch2c (BatchNormalizati (None, 14, 14, 1024) 4096        None      res4f_branch2c[0][0]   
[31.05.2018 21:04:10] __________________________________________________________________________________________________
[31.05.2018 21:04:10] add_13 (Add)                    (None, 14, 14, 1024) 0           None      bn4f_branch2c[0][0]    
[31.05.2018 21:04:10]                                                                  activation
[31.05.2018 21:04:10] __________________________________________________________________________________________________
[31.05.2018 21:04:10] activation_40 (Activation)      (None, 14, 14, 1024) 0           None      add_13[0][0]           
[31.05.2018 21:04:10] __________________________________________________________________________________________________
[31.05.2018 21:04:10] res5a_branch2a (Conv2D)         (None, 7, 7, 512)    524800      25690112  activation_40[0][0]    
[31.05.2018 21:04:10] __________________________________________________________________________________________________
[31.05.2018 21:04:10] bn5a_branch2a (BatchNormalizati (None, 7, 7, 512)    2048        None      res5a_branch2a[0][0]   
[31.05.2018 21:04:10] __________________________________________________________________________________________________
[31.05.2018 21:04:10] activation_41 (Activation)      (None, 7, 7, 512)    0           None      bn5a_branch2a[0][0]    
[31.05.2018 21:04:10] __________________________________________________________________________________________________
[31.05.2018 21:04:10] res5a_branch2b (Conv2D)         (None, 7, 7, 512)    2359808     115605504 activation_41[0][0]    
[31.05.2018 21:04:10] __________________________________________________________________________________________________
[31.05.2018 21:04:10] bn5a_branch2b (BatchNormalizati (None, 7, 7, 512)    2048        None      res5a_branch2b[0][0]   
[31.05.2018 21:04:10] __________________________________________________________________________________________________
[31.05.2018 21:04:10] activation_42 (Activation)      (None, 7, 7, 512)    0           None      bn5a_branch2b[0][0]    
[31.05.2018 21:04:10] __________________________________________________________________________________________________
[31.05.2018 21:04:10] res5a_branch2c (Conv2D)         (None, 7, 7, 2048)   1050624     51380224  activation_42[0][0]    
[31.05.2018 21:04:10] __________________________________________________________________________________________________
[31.05.2018 21:04:10] res5a_branch1 (Conv2D)          (None, 7, 7, 2048)   2099200     102760448 activation_40[0][0]    
[31.05.2018 21:04:10] __________________________________________________________________________________________________
[31.05.2018 21:04:10] bn5a_branch2c (BatchNormalizati (None, 7, 7, 2048)   8192        None      res5a_branch2c[0][0]   
[31.05.2018 21:04:10] __________________________________________________________________________________________________
[31.05.2018 21:04:10] bn5a_branch1 (BatchNormalizatio (None, 7, 7, 2048)   8192        None      res5a_branch1[0][0]    
[31.05.2018 21:04:10] __________________________________________________________________________________________________
[31.05.2018 21:04:10] add_14 (Add)                    (None, 7, 7, 2048)   0           None      bn5a_branch2c[0][0]    
[31.05.2018 21:04:10]                                                                  bn5a_branc
[31.05.2018 21:04:10] __________________________________________________________________________________________________
[31.05.2018 21:04:10] activation_43 (Activation)      (None, 7, 7, 2048)   0           None      add_14[0][0]           
[31.05.2018 21:04:10] __________________________________________________________________________________________________
[31.05.2018 21:04:10] res5b_branch2a (Conv2D)         (None, 7, 7, 512)    1049088     51380224  activation_43[0][0]    
[31.05.2018 21:04:10] __________________________________________________________________________________________________
[31.05.2018 21:04:10] bn5b_branch2a (BatchNormalizati (None, 7, 7, 512)    2048        None      res5b_branch2a[0][0]   
[31.05.2018 21:04:10] __________________________________________________________________________________________________
[31.05.2018 21:04:10] activation_44 (Activation)      (None, 7, 7, 512)    0           None      bn5b_branch2a[0][0]    
[31.05.2018 21:04:10] __________________________________________________________________________________________________
[31.05.2018 21:04:10] res5b_branch2b (Conv2D)         (None, 7, 7, 512)    2359808     115605504 activation_44[0][0]    
[31.05.2018 21:04:10] __________________________________________________________________________________________________
[31.05.2018 21:04:10] bn5b_branch2b (BatchNormalizati (None, 7, 7, 512)    2048        None      res5b_branch2b[0][0]   
[31.05.2018 21:04:10] __________________________________________________________________________________________________
[31.05.2018 21:04:10] activation_45 (Activation)      (None, 7, 7, 512)    0           None      bn5b_branch2b[0][0]    
[31.05.2018 21:04:10] __________________________________________________________________________________________________
[31.05.2018 21:04:10] res5b_branch2c (Conv2D)         (None, 7, 7, 2048)   1050624     51380224  activation_45[0][0]    
[31.05.2018 21:04:10] __________________________________________________________________________________________________
[31.05.2018 21:04:10] bn5b_branch2c (BatchNormalizati (None, 7, 7, 2048)   8192        None      res5b_branch2c[0][0]   
[31.05.2018 21:04:10] __________________________________________________________________________________________________
[31.05.2018 21:04:10] add_15 (Add)                    (None, 7, 7, 2048)   0           None      bn5b_branch2c[0][0]    
[31.05.2018 21:04:10]                                                                  activation
[31.05.2018 21:04:10] __________________________________________________________________________________________________
[31.05.2018 21:04:10] activation_46 (Activation)      (None, 7, 7, 2048)   0           None      add_15[0][0]           
[31.05.2018 21:04:10] __________________________________________________________________________________________________
[31.05.2018 21:04:10] res5c_branch2a (Conv2D)         (None, 7, 7, 512)    1049088     51380224  activation_46[0][0]    
[31.05.2018 21:04:10] __________________________________________________________________________________________________
[31.05.2018 21:04:10] bn5c_branch2a (BatchNormalizati (None, 7, 7, 512)    2048        None      res5c_branch2a[0][0]   
[31.05.2018 21:04:10] __________________________________________________________________________________________________
[31.05.2018 21:04:10] activation_47 (Activation)      (None, 7, 7, 512)    0           None      bn5c_branch2a[0][0]    
[31.05.2018 21:04:10] __________________________________________________________________________________________________
[31.05.2018 21:04:10] res5c_branch2b (Conv2D)         (None, 7, 7, 512)    2359808     115605504 activation_47[0][0]    
[31.05.2018 21:04:10] __________________________________________________________________________________________________
[31.05.2018 21:04:10] bn5c_branch2b (BatchNormalizati (None, 7, 7, 512)    2048        None      res5c_branch2b[0][0]   
[31.05.2018 21:04:10] __________________________________________________________________________________________________
[31.05.2018 21:04:10] activation_48 (Activation)      (None, 7, 7, 512)    0           None      bn5c_branch2b[0][0]    
[31.05.2018 21:04:10] __________________________________________________________________________________________________
[31.05.2018 21:04:10] res5c_branch2c (Conv2D)         (None, 7, 7, 2048)   1050624     51380224  activation_48[0][0]    
[31.05.2018 21:04:10] __________________________________________________________________________________________________
[31.05.2018 21:04:10] bn5c_branch2c (BatchNormalizati (None, 7, 7, 2048)   8192        None      res5c_branch2c[0][0]   
[31.05.2018 21:04:10] __________________________________________________________________________________________________
[31.05.2018 21:04:10] add_16 (Add)                    (None, 7, 7, 2048)   0           None      bn5c_branch2c[0][0]    
[31.05.2018 21:04:10]                                                                  activation
[31.05.2018 21:04:10] __________________________________________________________________________________________________
[31.05.2018 21:04:10] activation_49 (Activation)      (None, 7, 7, 2048)   0           None      add_16[0][0]           
[31.05.2018 21:04:10] __________________________________________________________________________________________________
[31.05.2018 21:04:10] avg_pool (AveragePooling2D)     (None, 1, 1, 2048)   0           None      activation_49[0][0]    
[31.05.2018 21:04:10] __________________________________________________________________________________________________
[31.05.2018 21:04:10] global_average_pooling2d_9 (Glo (None, 1024)         0           None      add_9[0][0]            
[31.05.2018 21:04:10] __________________________________________________________________________________________________
[31.05.2018 21:04:10] global_average_pooling2d_10 (Gl (None, 1024)         0           None      add_10[0][0]           
[31.05.2018 21:04:10] __________________________________________________________________________________________________
[31.05.2018 21:04:10] global_average_pooling2d_11 (Gl (None, 1024)         0           None      add_11[0][0]           
[31.05.2018 21:04:10] __________________________________________________________________________________________________
[31.05.2018 21:04:10] global_average_pooling2d_12 (Gl (None, 1024)         0           None      add_12[0][0]           
[31.05.2018 21:04:10] __________________________________________________________________________________________________
[31.05.2018 21:04:10] global_average_pooling2d_13 (Gl (None, 1024)         0           None      add_13[0][0]           
[31.05.2018 21:04:10] __________________________________________________________________________________________________
[31.05.2018 21:04:10] global_average_pooling2d_14 (Gl (None, 2048)         0           None      add_14[0][0]           
[31.05.2018 21:04:10] __________________________________________________________________________________________________
[31.05.2018 21:04:10] global_average_pooling2d_15 (Gl (None, 2048)         0           None      add_15[0][0]           
[31.05.2018 21:04:10] __________________________________________________________________________________________________
[31.05.2018 21:04:10] global_average_pooling2d_16 (Gl (None, 2048)         0           None      add_16[0][0]           
[31.05.2018 21:04:10] __________________________________________________________________________________________________
[31.05.2018 21:04:10] flatten_1 (Flatten)             (None, 2048)         0           None      avg_pool[0][0]         
[31.05.2018 21:04:10] __________________________________________________________________________________________________
[31.05.2018 21:04:10] dropout_9 (Dropout)             (None, 1024)         0           None      global_average_pooling2
[31.05.2018 21:04:10] __________________________________________________________________________________________________
[31.05.2018 21:04:10] dropout_10 (Dropout)            (None, 1024)         0           None      global_average_pooling2
[31.05.2018 21:04:10] __________________________________________________________________________________________________
[31.05.2018 21:04:10] dropout_11 (Dropout)            (None, 1024)         0           None      global_average_pooling2
[31.05.2018 21:04:10] __________________________________________________________________________________________________
[31.05.2018 21:04:10] dropout_12 (Dropout)            (None, 1024)         0           None      global_average_pooling2
[31.05.2018 21:04:10] __________________________________________________________________________________________________
[31.05.2018 21:04:10] dropout_13 (Dropout)            (None, 1024)         0           None      global_average_pooling2
[31.05.2018 21:04:10] __________________________________________________________________________________________________
[31.05.2018 21:04:10] dropout_14 (Dropout)            (None, 2048)         0           None      global_average_pooling2
[31.05.2018 21:04:10] __________________________________________________________________________________________________
[31.05.2018 21:04:10] dropout_15 (Dropout)            (None, 2048)         0           None      global_average_pooling2
[31.05.2018 21:04:10] __________________________________________________________________________________________________
[31.05.2018 21:04:10] dropout_16 (Dropout)            (None, 2048)         0           None      global_average_pooling2
[31.05.2018 21:04:10] __________________________________________________________________________________________________
[31.05.2018 21:04:10] dropout_17 (Dropout)            (None, 2048)         0           None      flatten_1[0][0]        
[31.05.2018 21:04:10] __________________________________________________________________________________________________
[31.05.2018 21:04:10] intermediate_add_9 (Dense)      (None, 10)           10250       10240     dropout_9[0][0]        
[31.05.2018 21:04:10] __________________________________________________________________________________________________
[31.05.2018 21:04:10] intermediate_add_10 (Dense)     (None, 10)           10250       10240     dropout_10[0][0]       
[31.05.2018 21:04:10] __________________________________________________________________________________________________
[31.05.2018 21:04:10] intermediate_add_11 (Dense)     (None, 10)           10250       10240     dropout_11[0][0]       
[31.05.2018 21:04:10] __________________________________________________________________________________________________
[31.05.2018 21:04:10] intermediate_add_12 (Dense)     (None, 10)           10250       10240     dropout_12[0][0]       
[31.05.2018 21:04:10] __________________________________________________________________________________________________
[31.05.2018 21:04:10] intermediate_add_13 (Dense)     (None, 10)           10250       10240     dropout_13[0][0]       
[31.05.2018 21:04:10] __________________________________________________________________________________________________
[31.05.2018 21:04:10] intermediate_add_14 (Dense)     (None, 10)           20490       20480     dropout_14[0][0]       
[31.05.2018 21:04:10] __________________________________________________________________________________________________
[31.05.2018 21:04:10] intermediate_add_15 (Dense)     (None, 10)           20490       20480     dropout_15[0][0]       
[31.05.2018 21:04:10] __________________________________________________________________________________________________
[31.05.2018 21:04:10] intermediate_add_16 (Dense)     (None, 10)           20490       20480     dropout_16[0][0]       
[31.05.2018 21:04:10] __________________________________________________________________________________________________
[31.05.2018 21:04:10] final_output (Dense)            (None, 10)           20490       20480     dropout_17[0][0]       
[31.05.2018 21:04:10] ==================================================================================================
[31.05.2018 21:04:10] Total params: 23,720,922
[31.05.2018 21:04:10] Trainable params: 133,210
[31.05.2018 21:04:10] Non-trainable params: 23,587,712
[31.05.2018 21:04:10] Total floating point operations: 3,832,416,256
[31.05.2018 21:04:10] __________________________________________________________________________________________________
…
